examples/checkpoints/go1/go1_decap.onnx (onnx, 752091 bytes, 8 tensors)

0.weight f4 [512, 42]
000000 7b bb e9 bd 7f 20 e0 bd 4f d5 11 3d 5f df f3 3c
       -0.11412712 -0.10943698 0.035603818 0.029769598
000010 f6 5a d1 3d ba 22 78 3d e8 b1 29 be fe c6 56 be
       0.102224275 0.060579993 -0.16571772 -0.20974347
000020 56 01 71 3e 59 0d 53 be 59 46 86 3d c3 1c 0a 3e
       0.23535666 -0.2061056 0.065563865 0.13487534
000030 62 4c 4b 3e 54 50 54 3e 44 4f 00 bd 0e b2 38 3e
       0.19853356 0.20733768 -0.031325594 0.18036672
000040 21 ed 06 3d b2 d0 12 be 99 85 a3 bd 78 62 c1 3d
       0.032940987 -0.14337423 -0.07984466 0.094426095
000050 56 3e 68 3e d2 eb fd bd 6e 4b aa 3d 72 30 15 3e
       0.2268003 -0.12398495 0.08315168 0.14569262
000060 0a f0 47 3e 6f 5c cc 3d 99 8b 11 bd 0a 04 b7 3d
       0.19525161 0.09978568 -0.03553352 0.08936317
000070 cb bf 4f be 74 18 1d bc 98 09 ff 3c b2 24 ba bc
       -0.20288007 -0.00958835 0.031132504 -0.022722576
000080 a1 c4 aa 3d 36 a7 0b be 08 b5 99 bd 7e b9 a6 3d
       0.08338285 -0.13638005 -0.07505232 0.081408486
000090 5b a9 15 bd 43 82 21 3d a7 0f 2b bc 51 93 bc 3d
       -0.036538463 0.039430868 -0.0104407435 0.09207786
0000a0 d0 1e 97 3c c6 2d 39 bd c9 a5 fe bc e7 f2 d6 bc
       0.01844731 -0.04520967 -0.031084912 -0.026238872
0000b0 0b b0 ba bd 0a bd 13 3d 64 68 b7 3c 3f d1 c3 bd
       -0.09115609 0.036068954 0.022388645 -0.09561395
0000c0 45 48 d8 bd bc f9 12 be ee a0 ec 3d 90 12 ab be
       -0.10560659 -0.14353079 0.115541324 -0.334126
0000d0 ca 89 28 3e 6f f2 1f be f4 ae 48 3e a2 3b 33 bd
       0.16458812 -0.15619825 0.1959799 -0.043758042
0000e0 66 b3 84 3d 7e f7 eb 3b 90 77 17 be 83 8e 34 be
       0.0647953 0.007201134 -0.14791703 -0.17632489
0000f0 b7 09 f9 3c 76 dd 12 be d4 9b fc bd 3c 9d 2c be
       0.03040014 -0.14342293 -0.12334409 -0.16856855
000100 bd 4d 03 be 10 b1 49 3d dd fd 29 be ff 13 80 bd
       -0.12822624 0.049241126 -0.16600747 -0.06253814
000110 7a 3e 60 3d c0 9a 4b 3c be 21 96 bd 15 14 47 be
       0.054747082 0.012427032 -0.073306546 -0.19441254
000120 bc 32 4d 3d e0 fd 02 3e 6c 9a 85 bd 76 b2 c0 3d
       0.050097212 0.12792158 -0.06523594 0.09409039
000130 fd 99 96 bd 72 e1 cb 3d 0a 41 3c 3d 3a 35 ae bd
       -0.0735359 0.0995511 0.045960464 -0.08506246
000140 54 92 b0 3b 6d b9 a7 bd 72 ed 1b bd 21 84 7f 3c
       0.0053885374 -0.08189664 -0.038068242 0.015595467
000150 ba 5d 58 be cc 44 7f 3d 06 6b ef 3d 5e f8 5f bd
       -0.21129504 0.06232147 0.11690335 -0.05468022
000160 e6 79 de 3d 74 d7 43 be dd f5 11 bd 5f 7d 03 be
       0.10863094 -0.19125158 -0.035634864 -0.12840794
000170 2d e9 95 bb 71 5e c6 bd e4 f5 a9 bd 1e a8 27 bd
       -0.004574916 -0.09685982 -0.08298853 -0.040931813
000180 23 0e 3c be 03 9b 39 be 14 32 47 bd 7b 9e 69 3e
       -0.18364768 -0.18125539 -0.048631743 0.22814362
000190 97 11 64 be 47 c0 74 bc b9 3e 2a be c6 a5 07 be
       -0.22272335 -0.014938421 -0.1662549 -0.13246831
0001a0 7f fe de 3b bb 30 2b be f6 4e 31 3e c6 2d bc bc
       0.0068052406 -0.16717808 0.17315277 -0.022971045
0001b0 18 65 93 3e 27 cd 45 3e 96 e5 e5 3d d0 9b 05 3e
       0.28788066 0.1931654 0.11225431 0.13047719
0001c0 ad 0c 1e be 82 64 38 be eb b1 a6 bc d8 52 86 bd
       -0.15434523 -0.1800709 -0.02034851 -0.0655877
0001d0 85 4b 2f b9 af 63 ec bd 67 f5 82 b8 51 ab f3 3d
       -0.00016717434 -0.11542451 -6.244593e-05 0.118979104
0001e0 93 3c 53 3d c6 d8 22 bb 18 5f 91 3d 91 dd 3c bd
       0.05157144 -0.0024848445 0.07098216 -0.04610974
0001f0 8b 4a c5 bd e5 f6 55 3d f8 db 0a 3e a9 3c 8f 3c
       -0.096333586 0.05223741 0.13560474 0.01748498
000200 a9 9d 87 bd 7e a2 51 bc 5a 5a 48 3d fe 1e cb bd
       -0.06621868 -0.012795089 0.04891429 -0.09918021
000210 59 6f a3 bd 3e d4 87 bd 64 0d 27 3e 42 23 f5 bc
       -0.07980222 -0.06632279 0.16313702 -0.029924039
000220 35 5c 1b 3e 1b 3d 5f 3e d1 66 08 3e ae b4 1c be
       0.15171893 0.21800654 0.13320471 -0.15303299
000230 3a b1 30 bd 58 95 58 be 7d ab 14 3d 47 76 c9 bd
       -0.043137766 -0.2115072 0.036296356 -0.09837013
000240 5e f8 fe bd 40 cd 2b bd 0b 05 ab 3c 05 a9 2d 3e
       -0.12449716 -0.04194379 0.020876428 0.16959007
000250 14 0f da bd d0 cb 1c bc 9e 0c 2d 3e 6f 2f ce bc
       -0.10647407 -0.009570077 0.16899344 -0.025169102
000260 5f 93 07 bc 26 21 04 3d 9b 74 fb bd ca 0b 89 3d
       -0.008274882 0.032258175 -0.122781 0.06691702
000270 27 2b 1d 3d 13 39 b4 bd 1e 42 cd bb f7 92 ea bd
       0.03837123 -0.087999485 -0.0062639853 -0.114538126
000280 10 a7 09 3c 43 77 a5 bd 75 39 f4 bd 58 45 bd 3d
       0.008401647 -0.08079388 -0.119250216 0.09241742
000290 1c fc 5a 3d 0b 5c 14 3c 8a e1 6a bd b8 35 d7 3d
       0.053463086 0.009055148 -0.057343997 0.10508293
0002a0 c0 d7 07 bb bb 4a c2 bd 8c 8c ba bd d3 69 65 bb
       -0.0020727962 -0.0948691 -0.091088384 -0.0035005703
0002b0 25 44 ed bd 0f 69 15 bd d5 88 aa be 67 62 27 3c
       -0.11585263 -0.036477145 -0.3330752 0.010216332
0002c0 8c 7d 0c be 7b d7 5c bd 8b d5 59 be 22 49 e5 bd
       -0.13719767 -0.053916436 -0.21272866 -0.111955896
0002d0 e4 1c 40 3e 55 3c 8d bd eb 18 01 be 29 81 f7 3d
       0.18761021 -0.06896273 -0.12607162 0.12085182
0002e0 b9 01 5c 3c 51 9c 09 be 35 47 1c bd 68 c6 9a 3c
       0.013428145 -0.13438536 -0.038153846 0.018893436
0002f0 7a 7d e9 bd 98 40 36 3e e6 4c 94 be 1a ae 41 be
       -0.11400886 0.17798078 -0.2896492 -0.1891407
000300 90 65 08 3e 79 96 8b bc e1 ef 65 3d 2b e1 d3 bc
       0.13319993 -0.017039524 0.05613697 -0.025864204
000310 cf 31 8e bd 5a c0 e4 3d 03 67 c2 bc ff 14 b5 3d
       -0.06943094 0.11169501 -0.02373076 0.08841895
000320 7d 7a db bc d6 ac 40 bd 0c 7b ab bc 1d 06 c0 bd
       -0.026791805 -0.04703983 -0.020932697 -0.09376166
000330 c2 de 99 3c ce d9 d0 ba cc 89 0a bd 29 0a d8 bd
       0.018782977 -0.0015934051 -0.03382282 -0.10548813
000340 0b 3f be 3d ac aa 26 3a ee 09 2d bd e8 58 d9 bd
       0.09289368 0.00063578296 -0.042245798 -0.10612661
000350 58 44 fc 3d d2 fa eb 3d 2d e6 4a 3b 2d 40 89 3d
       0.12317723 0.115224496 0.003095995 0.06701694
000360 75 8d 04 3e a4 28 45 3e 4f 01 67 bd d3 2c 8c 3c
       0.12944587 0.19253784 -0.056397732 0.017111218
000370 55 33 d0 bd 6b e1 c9 bd 48 35 7d 3d b6 4d 22 be
       -0.10166041 -0.09857448 0.06181839 -0.15849957
000380 60 13 bb 3d 19 16 92 3e 6f 1a 90 3c 6f 57 28 3e
       0.09134555 0.28532484 0.01759073 0.16439603
000390 a7 37 0e be 36 32 62 3d bb f5 19 3e fd d1 03 be
       -0.13888417 0.055223666 0.15035145 -0.12873073
0003a0 81 1a 8e 3b 0c 1b 1e 3e 79 9f d8 bd 5d a2 57 be
       0.0043366556 0.15440005 -0.10577292 -0.2105803
0003b0 8d 04 09 be 3c 31 69 3e 8b bd 31 3e c3 55 8a 3d
       -0.13380642 0.22772688 0.17357461 0.06754639
0003c0 f9 a4 94 3c 67 68 01 be a0 cd 8e 3d e4 ef 89 bd
       0.018145071 -0.12637483 0.069728136 -0.06735209
0003d0 76 cc 95 3d 4d 03 d1 bd e8 93 8d bd 44 f2 e4 3d
       0.073143885 -0.10205708 -0.069129765 0.11179021
0003e0 f8 45 73 3d 7b 7e 62 bc 3c 41 8d bd 58 d1 04 be
       0.0593929 -0.013824101 -0.06897208 -0.12970483
0003f0 d7 f2 f0 3d 0d f5 9d bd 27 03 31 3d c5 eb 9b 3d
       0.11765068 -0.07712755 0.043215897 0.07613329

0.bias f4 [512]
000000 75 45 ca 3d a5 39 2c be 51 8d 3c bd 69 8d b6 bc
       0.09876529 -0.16818865 -0.046033207 -0.022284226
000010 15 41 d6 bd 20 01 db 3d d7 55 7d bd c9 4f 05 3e
       -0.10461632 0.10693574 -0.06184944 0.13018717
000020 47 59 c7 3c 41 4f 16 bc 37 f2 46 bc 80 8f 9c 3d
       0.024334563 -0.009174169 -0.012142709 0.07644558
000030 76 4e b4 3c e4 7e 3e 3d 94 fd fd 3d 39 5f 15 be
       0.02201007 0.04650773 0.12401882 -0.14587106
000040 ba 4f b0 bc 26 ae 8a 3c 55 db da bc 87 ec db ba
       -0.021522392 0.016928744 -0.026715914 -0.0016778865
000050 5c 3d 6b bd 9c 69 2a 3d ea 6f b4 bd 04 92 52 bd
       -0.057431564 0.041604623 -0.088104084 -0.051408783
000060 21 ff fa 3d 1f 77 ce 3d 0a 26 23 be b0 f3 a3 bc
       0.12255693 0.10081314 -0.1593248 -0.02001366
000070 39 36 d9 3d 35 46 a2 bd 06 ed a9 bd 16 ea c7 3d
       0.10606045 -0.07923547 -0.08297162 0.09761445
000080 37 6e 6c bd 8c d2 1d 3d e3 dd a2 3d fc 96 d8 bc
       -0.057722297 0.03853087 0.07952478 -0.026439182
000090 f5 14 82 bd 5c 39 38 bc 66 77 3b bd a3 c5 d5 3d
       -0.063516535 -0.011244144 -0.045768164 0.10438087
0000a0 b9 f5 a8 bd 9b d2 7a 3c 3e 70 08 3e 0b 84 86 3d
       -0.08249993 0.015309001 0.13324067 0.06568154
0000b0 b1 b8 16 bd 42 15 6a 3d ab 5b 81 3c fc 68 9e 3d
       -0.03679723 0.05714918 0.015790781 0.07734868
0000c0 91 34 1a 3d c5 80 99 bc 19 bd 32 bd 32 30 92 bd
       0.037647787 -0.01873816 -0.04363737 -0.07138099
0000d0 7a ce 72 bd f4 e2 d4 3b 66 b8 ce 3c a6 ba ae bd
       -0.059278943 0.0064967815 0.025234412 -0.08531694
0000e0 e7 fa 3e 3d 0e 22 1a 3d 20 70 bd 3d 8f 5e f5 3d
       0.046625998 0.037630133 0.09249902 0.11980926
0000f0 8f 82 82 3d 5d c8 c6 3d 55 2c 3f bd f7 8d c9 bd
       0.06372558 0.09706185 -0.046673138 -0.09841531
000100 7c 00 a9 bd 0b 5e 14 be 0b 6a 73 3d fa f3 74 bc
       -0.082520455 -0.14489 0.059427302 -0.014950747
000110 88 ec 5e 3d 06 d7 88 3d a5 db fa bd 48 ae cd 3d
       0.054424793 0.066816375 -0.12248925 0.10043007
000120 15 a2 e3 3d e4 8d fc bd b0 78 0e bc b2 6b e5 bd
       0.11114899 -0.12331751 -0.008695766 -0.11202182
000130 7d a3 68 3d 7d 86 fe 3c d4 3f 51 3d d6 21 1d 3d
       0.05679654 0.031069988 0.051086262 0.038362347
000140 f8 f4 0b be 9a b8 ad 3d 2b bf 5b 3d e1 c8 a2 3b
       -0.13667667 0.084824756 0.05364911 0.0049677943
000150 89 81 bf 3d 2b 25 21 bd b0 57 94 bd 7d 7a 8b bd
       0.09350879 -0.039342087 -0.072432876 -0.06810472
000160 3c 07 77 39 26 6c 9e bd d5 18 c9 bd 8b 26 cc bc
       0.0002355845 -0.077354714 -0.098191895 -0.024920722
000170 c1 fa 32 3d 3d 68 58 bc 26 c3 fd bd ca 6a ef bd
       0.04369617 -0.013208446 -0.12390737 -0.1169029
000180 1f 35 32 be fb 8e 42 bc c0 63 04 3d a5 62 ec 3d
       -0.17403077 -0.0118749095 0.03232169 0.115422525
000190 f7 96 63 bd d6 12 1c be 34 a7 56 3d c2 03 de bd
       -0.055563893 -0.1524156 0.05240555 -0.108405605
0001a0 96 9a 94 3d ee 1d 02 3e 02 2e 57 bd b5 d2 88 bd
       0.072560474 0.1270673 -0.05253411 -0.06680814
0001b0 6f 66 10 be b7 44 b9 bd bb c1 cf 3d 54 14 c9 bc
       -0.14101575 -0.090463094 0.10144373 -0.024545826
0001c0 3d 4b b3 3d 2d 3d 24 3e 9c d1 8f bc 4c 54 34 3d
       0.08754585 0.16038962 -0.017556004 0.044025704
0001d0 81 b5 0b be 0d 7d be 3c b7 43 ac 3d 0f 3b 9b bd
       -0.13643457 0.023252988 0.08411353 -0.07579624
0001e0 1c a3 97 3c 21 a8 5b bd 92 72 30 3e ab 3d 15 bd
       0.018510394 -0.053627137 0.17231205 -0.036435764
0001f0 96 4d 83 3d 19 06 45 bd 79 03 84 3b 5a 49 65 bd
       0.06411283 -0.04810152 0.0040287343 -0.055978157
000200 7c 8d 2a 3d 89 fc 00 be bb 6b 30 3d 17 f3 a8 bd
       0.041638836 -0.12596335 0.04307149 -0.08249491
000210 dc 8e 84 bc d6 82 14 be aa d1 ba bc f6 b8 80 bd
       -0.016181402 -0.14503035 -0.022805054 -0.062852785
000220 17 6b df 3d b4 55 7f bc 43 6d 0f be 7b 14 2c bd
       0.10909098 -0.015584398 -0.14006524 -0.04201172
000230 c4 fc ca bd 07 ae 2b bd 9f be fc 3d fd e5 0e be
       -0.099114925 -0.041914012 0.123410456 -0.13954921
000240 21 4b 4e bd af 63 e8 bd 5f 1f 7f bd ea f5 a1 3d
       -0.050364617 -0.11347138 -0.062285777 0.079082325
000250 2c 6c f9 bd 7d 20 f8 bd 8b 4f 2f bd e8 83 89 bd
       -0.12178835 -0.12115572 -0.042800467 -0.06714612
000260 82 90 37 3e 1b c7 60 bc 47 a2 a8 3d 09 50 15 bc
       0.17926219 -0.013719345 0.08234077 -0.00911332
000270 6d 92 a4 3d bc 15 02 3e 4d d5 d6 bc f6 6a a7 bd
       0.08035741 0.12703604 -0.026224757 -0.08174698
000280 22 c7 a9 3d 6f aa 06 be 76 6d a0 bd 61 67 cd bd
       0.08289935 -0.13150953 -0.07833378 -0.100294836
000290 7c c7 63 3d ef ae 3d bd 86 ac b5 bd 83 31 02 3e
       0.055610165 -0.046309408 -0.08870797 0.127142
0002a0 d4 9e 38 3c 7a 27 cf bd b4 29 01 3c cf 5c 08 bd
       0.011268336 -0.101149514 0.007883478 -0.033291634
0002b0 a0 c1 d4 bd 20 d3 b4 bb 0a 86 94 3d 6a 4c 9f bc
       -0.103884935 -0.005518332 0.072521284 -0.019445617
0002c0 52 78 26 bd 31 a2 b6 3d 2e 2a 45 3d ad 1b 0f 3e
       -0.04064209 0.08917654 0.04813593 0.13975401
0002d0 1f 6c c0 bb 81 79 7f 3d ad 3c 9e bd 0b 42 0f 3e
       -0.005872264 0.062371735 -0.07726417 0.13990037
0002e0 db b0 3b 3d b2 81 02 3d 5b 85 73 3d 3a de c5 bd
       0.04582296 0.03186197 0.05945335 -0.09661527
0002f0 51 03 ef bd 9c a6 75 bd 20 13 ef bd a3 cd 5b 3d
       -0.116705544 -0.059973344 -0.1167357 0.053662907
000300 4f fc f5 3c 01 6f bf bd ae 5d bc 3d 0c 91 30 3d
       0.030027537 -0.09347344 0.091975555 0.043107077
000310 c0 92 57 3d 66 45 04 3e f0 04 55 3d a6 48 26 3e
       0.052630186 0.12917098 0.052006662 0.1623865
000320 63 a8 3f 3d d5 50 0b 3d 2a 38 a7 3d c7 47 9a bc
       0.046791445 0.034012634 0.08165009 -0.018833054
000330 e6 92 19 be ac 7e 08 3e 0a 8f d7 3d 2e 0f 00 3e
       -0.14997444 0.13329571 0.105253294 0.1250579
000340 a3 53 de 3d 4d 5a 1e 3d 34 a1 81 bd b7 ef 81 3b
       0.10855796 0.038660336 -0.06329575 0.003965344
000350 92 f7 05 be 45 bc d3 3d e7 69 2c 3e 1b ce 8b 3d
       -0.13082722 0.10338644 0.16837274 0.06826421
000360 20 29 e6 bd 49 45 ff 3d 2e 36 07 bd 9f ad 4f bb
       -0.11238313 0.12464387 -0.033010654 -0.003168918
000370 ab 89 cf 3d cf 99 d3 3d f2 9e cb bb 8c 1d 1d 3c
       0.1013368 0.10332071 -0.006214016 0.009589564
000380 63 73 12 be 0e cc f9 3b e6 3c 14 bb 45 b9 2c bd
       -0.14301829 0.007623202 -0.0022619306 -0.042168874
000390 16 6c c4 3d bf 0a d7 3d 8d 85 9b 3d 00 ec fe bc
       0.09590928 0.105000965 0.07593832 -0.031118393
0003a0 fc 09 f6 bd 67 28 8a bd 33 a0 c3 bb f0 4a 93 3d
       -0.12013623 -0.067459874 -0.005970025 0.071920276
0003b0 45 91 85 bc 10 9a 60 bd 10 2d 27 3d 87 05 c8 ba
       -0.016304621 -0.054834425 0.04081446 -0.0015260436
0003c0 20 9b 9e 3d e9 d5 b1 3d 35 ec 19 3e 49 31 3b 3d
       0.077444315 0.08683378 0.15031512 0.0457013
0003d0 4e b2 4e bc 2a 46 9c 3d 14 2c 73 bc 94 34 ba 3d
       -0.012615753 0.0763057 -0.014842052 0.0909206
0003e0 fb 13 c7 bd 3f 4f 0f 3d 9e 95 c9 bd 64 3e 87 bd
       -0.09720608 0.034987684 -0.0984299 -0.06603697
0003f0 bf 38 bd ba 30 5e 0d be 60 84 fd bd cd 3b 40 bd
       -0.0014436467 -0.13805461 -0.12378764 -0.04693203

2.weight f4 [256, 512]
000000 a0 a9 7e bd 8d db a7 3c df 88 b9 bd e9 d7 67 bc
       -0.062173486 0.020490432 -0.09059309 -0.014150598
000010 55 6c cc 3d b2 90 06 3d 6e 02 67 3c 15 3d c7 bd
       0.099816 0.032852836 0.0140997 -0.09728447
000020 0a be 03 bd 3f 46 2d 3c 0c f2 8d bc 81 a1 bf bd
       -0.032163657 0.01057583 -0.017327331 -0.09356976
000030 ba 7b 9c bd 63 40 7a 3c c6 66 ff bd 94 b4 2e 3d
       -0.076407865 0.01527414 -0.12470774 0.04265268
000040 31 f0 30 3d a9 92 20 bd 2e 34 5a 3d 07 37 09 3c
       0.043197814 -0.039202366 0.05327242 0.008374936
000050 32 7a 09 3c e6 c4 f9 bb a0 6e 0b 3e 9e 37 34 bb
       0.00839095 -0.007622349 0.13616419 -0.002749897
000060 bb bd 64 bd 42 56 9f 3d 75 df a5 3c 65 a2 51 bb
       -0.055845004 0.07780124 0.020248154 -0.0031987664
000070 4c 2f e8 ba 32 c8 80 3d 3e 3d 9b 3d a2 14 ec bc
       -0.0017714291 0.06288184 0.075800404 -0.028818432
000080 82 54 05 3e 5e 9d 1c be ad 06 56 3d f3 ca f7 bc
       0.13020518 -0.15294406 0.05225246 -0.03024814
000090 29 43 1f 3d 27 aa 35 bd 11 ba a6 bd 0b bb e0 3c
       0.03888241 -0.044351723 -0.08140958 0.027432939
0000a0 b9 6b 7a 3c 87 e9 bc bd af ee 71 3c e2 06 49 3d
       0.015284472 -0.09224229 0.014766379 0.04907883
0000b0 83 f7 59 bd 9f 82 d4 ba d4 25 b8 bc 22 f3 9c bd
       -0.05321456 -0.0016213245 -0.022478975 -0.076635614
0000c0 51 4c a9 bd 6f 4a 10 3e c9 10 d2 3c 26 0a 79 3d
       -0.08266509 0.14090894 0.02564277 0.060800694
0000d0 58 4f 81 3b 58 55 24 3c 6c de 28 3b 3c fd 3b bd
       0.003946226 0.010030113 0.002576734 -0.0458958
0000e0 55 57 b9 bc ce c4 c4 bb 3a c3 6e 3d 73 9d 32 bd
       -0.022624651 -0.0060049063 0.05829165 -0.043607187
0000f0 8c c7 09 bd 96 cc 8d bd 8e f7 80 39 b3 9f c2 3c
       -0.03363757 -0.06923787 0.00024598505 0.023757791
000100 da 1c 73 3d e7 dc 3f 3d 5e d9 fb bd 9f 94 86 3c
       0.059353687 0.04684153 -0.12297319 0.01642829
000110 b2 e1 03 bc a6 31 ad 3c dc df 46 bd f9 2c ac 3d
       -0.008049415 0.021141838 -0.048553333 0.08407015
000120 95 82 c9 3c 16 77 d2 3d 04 20 7d bd 7c b7 08 3d
       0.0245984 0.1027662 -0.06179811 0.03337811
000130 93 26 df bd a8 7e 0e bc 0e 53 a2 bd 29 fc 86 3d
       -0.10896029 -0.008697189 -0.07925998 0.065910645
000140 6c 4c 22 bd 3a 01 84 3d b8 80 b0 3b 05 39 56 bd
       -0.039623663 0.064455464 0.005386438 -0.05230047
000150 7a 46 4e 3c b7 0a 72 3b 1b 83 fa bd df 8a 48 bd
       0.012590045 0.0036932656 -0.12232038 -0.048960563
000160 27 d7 cd 3c 7b ba 26 bd f1 73 11 bb 85 85 9d 3d
       0.025127007 -0.040705185 -0.002219435 0.076914825
000170 46 f9 42 be eb 33 be 3c ef 6e a0 3c 98 bb 00 3e
       -0.19040403 0.023218116 0.019584147 0.12571561
000180 e6 60 08 3d 24 ee 1b 3d 78 0f f6 bb 74 10 79 3d
       0.033295535 0.038068905 -0.0075091682 0.060806707
000190 85 4b 00 bd 3a e2 80 bc 09 2e 82 bc c2 ef 4e 3d
       -0.03132202 -0.015732873 -0.015891092 0.05052162
0001a0 82 be 68 3d f2 f4 08 3e ba b4 82 3d 04 8a 8a 3a
       0.056822307 0.13374689 0.06382127 0.0010569696
0001b0 4a 7e f6 ba c2 b0 76 3d c9 bc c2 3c 95 14 51 3d
       -0.0018805948 0.060227163 0.02377166 0.05104502
0001c0 c0 01 8b bd 94 02 ce 3c 8c 2b 36 3d b5 3d 89 bd
       -0.06787443 0.025147714 0.044475123 -0.06701223
0001d0 0a 0c 80 3c 4d 26 9e 3d 67 8a b2 3d 63 ea c2 3b
       0.01563074 0.07722149 0.087178044 0.005948351
0001e0 96 c3 07 be b0 0a 80 3d 31 12 bb bb f8 35 d3 3d
       -0.13258204 0.062520385 -0.0057089557 0.10313028
0001f0 0a 67 83 bd a9 78 fc 3c 52 4e cf bc 20 09 2f bc
       -0.064161375 0.030819254 -0.0253059 -0.010683328
000200 19 d6 96 bb 2d 6c 70 bd 72 fd ef 3d 21 3b dc 3c
       -0.004603159 -0.058696914 0.11718263 0.026883664
000210 9f bf 08 bd ba c2 9a 3b e5 ce 6f 3d f5 46 72 3b
       -0.03338587 0.0047229202 0.05854692 0.0036968563
000220 a9 0f 40 3b 89 09 36 3d c3 0c 81 3c 47 77 38 bd
       0.002930621 0.044442687 0.015753156 -0.045035627
000230 56 2a 32 3c 25 54 b7 3d 6c 71 b9 bd d3 8b 91 bc
       0.0108743515 0.08951596 -0.09054837 -0.017766869
000240 53 c7 64 3d 34 75 19 3d ba a6 3e bd 82 52 a6 3c
       0.055854153 0.03746529 -0.04654572 0.020303015
000250 05 92 14 3c 6b a0 c2 3d 34 bd 2e 3d 9c 09 1b 3d
       0.009068017 0.095032535 0.042660907 0.03785096
000260 45 c2 d1 3b 40 21 d6 bc 78 0b c7 bc ba d9 c5 3c
       0.0064013326 -0.026138902 -0.02429746 0.024151672
000270 ca c1 af 3b fa 17 43 bd 7e ed 6b bd fb 54 82 bd
       0.0053636776 -0.047630288 -0.057599537 -0.06363865
000280 ba c8 4b 3c 3a dd 8c bd 50 12 46 bd 33 dc 5a 3c
       0.012437994 -0.06878133 -0.048357308 0.013358164
000290 c8 d3 6e bd d5 4f 4f 3d 41 0b 5a bd 91 24 38 3d
       -0.05830744 0.050613243 -0.05323339 0.044956747
0002a0 cf e8 0b 3d df 20 12 3b 35 fa f4 bc e2 7f 6e bd
       0.03415757 0.0022297425 -0.029904464 -0.058227427
0002b0 db 19 41 bd 5c 75 08 bc ea 66 36 bc 01 5b 87 bd
       -0.0471438 -0.008328762 -0.011132935 -0.066091545
0002c0 fe 0f bc 3d 80 e8 ab 3d 62 1e 00 3d 3d 80 88 bd
       0.09182738 0.08393955 0.031278975 -0.066650845
0002d0 d3 f0 8e bd 5e 52 d7 bc 06 62 da bd 85 99 b7 bc
       -0.06979527 -0.026284393 -0.10663228 -0.022412071
0002e0 5d 5c cd bd 85 95 9b 3c 99 9d 92 bc 03 b0 7a 3d
       -0.100273825 0.018992195 -0.017897414 0.061203014
0002f0 5e 90 e2 3d b4 f2 46 3d 96 9a 6d bd a6 f0 2e 3d
       0.11062692 0.048571303 -0.058008753 0.04270997
000300 a2 5e 11 3d 76 fd 6a 3c e0 b6 87 bd 70 b0 af bd
       0.03549064 0.014342656 -0.066266775 -0.08578575
000310 0f d4 6b bd de 7c b9 3c 12 24 5f 3d 7f 9e d0 3c
       -0.05757528 0.02264255 0.05447776 0.025466202
000320 a1 10 8e bd 25 11 07 3d fd d5 48 3d be b5 88 bc
       -0.069367655 0.032975335 0.0490322 -0.016688224
000330 b1 51 30 3d 84 24 56 bd 4a 73 2c 3d 29 ef 5f bd
       0.043046657 -0.052280918 0.042102136 -0.05467144
000340 53 40 7a 3c 67 45 7d 3b b9 aa 9c 3d 13 62 f2 3d
       0.015274125 0.0038646103 0.0764975 0.118351124
000350 5f 62 c8 3c 41 95 ce 3d 9a 47 31 3e ad 59 91 3c
       0.02446097 0.10087062 0.1731247 0.017742956
000360 95 69 96 bd e0 c7 bc bd 6f 8c 94 bd 19 26 8a bb
       -0.07344357 -0.09217811 -0.07253348 -0.0042159674
000370 5d 54 19 bd 24 94 d1 3b a7 c2 53 bd 4b 4e 50 bd
       -0.03743397 0.0063958336 -0.051699307 -0.050855916
000380 28 46 34 bd ac 6d 2a bc c1 6d 15 3d ff a3 17 3d
       -0.04401222 -0.010402124 0.036481623 0.037021633
000390 77 36 9f 3c b8 ad 45 bc fb 96 93 bc 08 e7 aa 3d
       0.01943515 -0.012065344 -0.018016329 0.08344847
0003a0 42 bc 46 b9 45 8b b5 bd d1 5a 95 3c 78 0b c9 bd
       -0.00018952883 -0.08864454 0.018231781 -0.098166406
0003b0 7e 80 ee 3c 7c c9 bc bc 26 4d 1c 3c 37 1d 05 bc
       0.029114004 -0.023045294 0.009539878 -0.008124641
0003c0 bf 4d 8e bd 30 80 cd 3d 1b 8f d5 3d 45 2d ca 3d
       -0.06948423 0.100342155 0.10427686 0.09871916
0003d0 3f 4b 10 bd b8 95 8e bd ee 48 fa 3d fa 16 8e bc
       -0.03522801 -0.0696215 0.122209415 -0.01734494
0003e0 81 1c 88 bb aa a9 e5 3c 00 7d 90 3d 74 54 b3 ba
       -0.0041537886 0.028035004 0.07055092 -0.0013681785
0003f0 eb f5 51 bd ec 72 a3 3c 78 fe 2e 3d 93 5b 93 bd
       -0.051259916 0.01995226 0.04272315 -0.07195201

2.bias f4 [256]
000000 91 c1 46 3c 6b f6 54 3c 4c d7 c6 ba 73 2b 68 bc
       0.012131111 0.012998204 -0.0015170365 -0.014170515
000010 fe fc bb 3b 73 43 a2 bc 12 26 93 3c ce 96 09 3d
       0.005736946 -0.019807553 0.01796249 0.033591084
000020 26 2d ed bb d5 9f b5 bc d6 a4 bb bc a7 80 2b bc
       -0.007238048 -0.02217094 -0.022905748 -0.010467685
000030 35 f6 0b bc a4 27 03 bd 58 58 41 3d 23 4c c9 bc
       -0.008542587 -0.032020226 0.04720339 -0.024572438
000040 92 79 29 3d 4f c9 29 3d c9 cb 92 bb 99 f0 fc bb
       0.041375704 0.04145175 -0.0044798595 -0.007719111
000050 67 0c 34 3d 5e bd 41 bc 76 55 03 3d 17 e3 d2 3b
       0.04395714 -0.011824934 0.032063924 0.0064357626
000060 c7 d4 24 3d 69 c1 9b bd e2 03 0f bd 78 9a 98 bc
       0.040241983 -0.076052494 -0.034915812 -0.018628344
000070 30 b6 c6 bb 79 33 1e bd 69 69 63 3c 9a 43 ca bc
       -0.006064199 -0.038623307 0.013880112 -0.024690438
000080 ee 24 71 bd b3 12 ec 3c 8c b2 1c bd 73 2e 8d bc
       -0.05887311 0.02881751 -0.038256213 -0.017234063
000090 b0 b8 87 bb dc 62 ad bc 80 a3 2a bd ac 37 09 bd
       -0.0041418895 -0.021165304 -0.041659832 -0.03350036
0000a0 e5 a1 cd bc 28 f8 4f bd 93 0a f5 3a 96 7e 7f bc
       -0.025101611 -0.05077377 0.0018695168 -0.015594145
0000b0 7e 2e ca bc e9 1e 1a 3c 20 f6 51 bc 3e 53 e4 3b
       -0.024680372 0.009406784 -0.012815028 0.006967931
0000c0 b0 0b 24 bd a1 b3 48 3c bc c7 22 bd 97 bd da 3c
       -0.04005021 0.012249858 -0.039741263 0.026701732
0000d0 64 ff 36 bd d7 cc f3 bc 4b 05 7f bd e3 9d 35 bd
       -0.044677153 -0.029760761 -0.062260907 -0.044340026
0000e0 5b 22 16 bd f4 a4 a1 bc 60 c7 85 bd da 1a f4 3a
       -0.036653858 -0.019731976 -0.065321684 0.0018623725
0000f0 65 79 6c bd b6 08 23 3c d7 29 f2 3c c5 31 56 3c
       -0.05773296 0.009950807 0.029560966 0.013073389
000100 06 5f 96 bb 5f c5 39 bd 8a 38 3c bd 9a 59 cc bb
       -0.0045889644 -0.045354243 -0.045952357 -0.0062362673
000110 96 37 3d bd c9 f7 e4 bc 06 ec 42 bd 84 28 00 3d
       -0.04619559 -0.027950184 -0.04758837 0.03128864
000120 7d 42 98 bd f2 f2 14 bb ce 45 ef bb c5 18 c9 bc
       -0.07434557 -0.0022727815 -0.0073020225 -0.024547944
000130 20 f1 70 3c 2b a3 6a bc 12 f6 84 bc 0c c5 32 bd
       0.014705926 -0.014321129 -0.016230617 -0.04364495
000140 2f ef d5 3b 55 77 0d bd 1c bc 4b bc 4f 56 0b 3d
       0.006528757 -0.034537632 -0.0124349855 0.034017857
000150 7b 57 85 bd d6 8e 96 bb d2 5f 36 bc c5 16 80 bb
       -0.06510826 -0.004594664 -0.011131244 -0.0039089643
000160 ff 4d 45 bc a7 0c 19 bd 46 6e 81 bd f7 0d 1e bc
       -0.0120425215 -0.03736558 -0.06319861 -0.009646884
000170 d1 a7 d0 3c 9d 65 6d bb af 66 f3 bc 77 c0 32 3d
       0.025470646 -0.0036223896 -0.02971205 0.04364058
000180 4d b0 d1 3b e2 d8 26 3d c8 ed 07 bd da b8 29 3b
       0.0063991905 0.04073418 -0.03318575 0.0025897534
000190 5d 22 10 bc 9f 75 9b bc c6 9a ad bc 82 9a 0a bd
       -0.008797255 -0.018976985 -0.021191966 -0.033838756
0001a0 d3 c0 1f bd 74 eb 9f 3c 8b 4e 4e 3d 3d 93 a2 3b
       -0.03900225 0.019521452 0.050367873 0.0049614
0001b0 10 7c 07 bd 65 87 fe bb d6 3f 3a bc 8d 9c 3a bd
       -0.0330773 -0.007767605 -0.011367759 -0.045559455
0001c0 f1 90 ad bd 9b 9a 19 bd df b2 22 3d 5e 23 5c 3d
       -0.08474911 -0.03750096 0.039721366 0.053744666
0001d0 68 22 02 bd dd ca 9b 3c f6 6a 8c bc c3 5d 54 3c
       -0.031771094 0.019017631 -0.017140847 0.012961808
0001e0 84 0c 79 bc 42 4a ef 3c d0 69 8c 39 4f c0 83 bc
       -0.015200738 0.029210214 0.00026781717 -0.01608291
0001f0 80 57 9c bc d1 90 34 39 88 0d f2 bb 0a 30 9d 3b
       -0.019084692 0.00017220086 -0.007386867 0.0047969865
000200 bd 14 66 bd 5b b7 ed bb a2 97 23 bd bf 99 2d bc
       -0.05617212 -0.0072545237 -0.03993953 -0.010595738
000210 68 5c 8f bb bd fb 11 bc 39 aa 4d bc 77 c1 21 3d
       -0.0043750294 -0.008910117 -0.012552791 0.039491143
000220 ef 20 64 bc dc a4 6f bd 45 01 53 bc 62 48 67 bd
       -0.013923868 -0.05850683 -0.012878721 -0.056465514
000230 ad b0 96 bc 68 77 be bb c7 9a 29 3c 5b f2 01 3d
       -0.018394792 -0.005812574 0.010351843 0.03172527
000240 2a 3e 83 3a 08 00 f6 bc 4a e3 d3 3c 67 94 ce bc
       0.0010013033 -0.030029312 0.025865216 -0.025217248
000250 04 a7 69 3c a4 9f 0e bd 90 39 08 3c 95 94 ac bc
       0.014261011 -0.034820214 0.008314505 -0.021066943
000260 82 3e d1 3c 06 84 d6 3b bd 9b 80 3b 65 f4 ea bc
       0.025542501 0.0065465 0.0039248154 -0.02868099
000270 b1 d3 96 bc 0d 86 df bb 14 59 fc bc 3b 22 45 3b
       -0.01841149 -0.0068214 -0.030804195 0.0030080217
000280 2f 7b 19 bd be 67 31 bd 45 50 a6 3c 44 f9 09 bd
       -0.037470993 -0.043311827 0.020301947 -0.033684984
000290 96 56 c1 ba ad 1b 3f bb 65 0a 77 3c 6b cf 93 3c
       -0.0014750536 -0.0029160783 0.015078162 0.01804324
0002a0 5d 54 d9 bc a4 b4 81 3b 4d 71 b3 bc ed 34 9c bc
       -0.026529485 0.0039583016 -0.021904612 -0.019068206
0002b0 fa bc 7b bd 35 89 db bd 5a 4e 0e bd 15 26 4f bb
       -0.06145952 -0.107195295 -0.03474269 -0.0031608392
0002c0 5d ef 92 bd 51 e9 51 3c 3a 10 23 bc 70 83 59 3b
       -0.07174561 0.012811975 -0.009952599 0.0033189915
0002d0 a4 9e 04 3c 28 29 ad 3c 10 69 2a 3d 49 4e a8 3a
       0.0080944635 0.021137789 0.0416041 0.0012840714
0002e0 23 27 f5 3c 51 1f 6e bb 1e 6e 77 3c c8 1f 96 bc
       0.029925888 -0.0036334584 0.015101938 -0.018325701
0002f0 1c da b6 b9 71 0e b8 bb e5 5a a0 3c ae 0c 34 bd
       -0.0003487625 -0.005616956 0.019574592 -0.043957405
000300 94 79 20 bd d6 17 81 3c 3d 87 a0 bc a2 d8 c3 bc
       -0.039178446 0.015758436 -0.019595737 -0.02390701
000310 6a bb 63 bd d5 ee e1 3c d4 f8 f5 bc 08 03 07 3d
       -0.055598654 0.027579704 -0.030025877 0.032961875
000320 64 bf 3b bd 4a a4 82 bc 61 09 a0 3b 88 79 56 bc
       -0.04583682 -0.01594748 0.0048839306 -0.013090499
000330 e9 29 2e 3d a0 07 92 bd a2 16 f5 3b 02 32 19 bd
       0.042520437 -0.071303606 0.0074795047 -0.037401207
000340 f6 0c 9a bc 37 52 8c bd c9 14 53 bc 93 76 4c bc
       -0.018805008 -0.06851619 -0.012883374 -0.012479442
000350 f4 2c 11 bd 87 98 1e ba 30 07 4a 3c d2 5f 17 bd
       -0.03544326 -0.000604995 0.012330815 -0.036956616
000360 0f 55 fd bb 40 fe 68 bd 25 45 3a 3c 36 53 34 bd
       -0.007731087 -0.056883097 0.011369024 -0.04402467
000370 bc 81 2f bc 07 06 a2 ba 6b 84 28 bd 5b 6d d1 bc
       -0.010712083 -0.0012361415 -0.04114191 -0.02556484
000380 5a 1d 9c 3c 03 6a 09 3d e4 56 0a bd ed 25 f8 bb
       0.019056965 0.033548366 -0.03377427 -0.0075728805
000390 56 30 0d 3d 6a f9 91 bd c7 ad f0 3c 4e d9 b8 bd
       0.034469925 -0.0712765 0.029379738 -0.090258226
0003a0 45 30 8e bb d6 8e 06 3d 8d f5 d0 bc 8a 92 7a bc
       -0.0043392503 0.032851063 -0.025507713 -0.015293727
0003b0 33 8f 25 3c 4a d9 f4 3c 65 4e 47 3b f1 e6 5d bc
       0.010104942 0.029888768 0.0030411717 -0.01354383
0003c0 b8 54 38 3d da 01 fa ba 17 78 ad bc 1c 03 ab bc
       0.04500267 -0.0019074038 -0.021175427 -0.020875506
0003d0 ff 18 a1 bb c1 97 c3 3c 79 c9 ce 3c c1 f0 cf bc
       -0.00491631 0.023876073 0.025242554 -0.025383355
0003e0 38 03 c6 3c 26 af 1e bd 55 01 da bc 65 e3 b2 3a
       0.024171457 -0.038741253 -0.026611963 0.0013648091
0003f0 89 e8 62 bd 8b 94 33 bd 61 70 ba 3c 0d 7a 2b 3d
       -0.055397544 -0.043842833 0.022758665 0.041864444

4.weight f4 [128, 256]
000000 36 94 d2 3d f2 f9 8f 3d 35 73 45 bc 37 e9 90 bd
       0.10282175 0.07030095 -0.012051393 -0.07075732
000010 8f 72 9e bc 52 ff 44 bd 65 5d 1b bd c9 9e 27 3d
       -0.019341735 -0.048095055 -0.037930865 0.040922914
000020 5a 15 09 be f2 b2 68 3d 04 20 f6 3d 16 23 a3 3d
       -0.13387051 0.05681128 0.12017825 0.079656765
000030 8b 8b 10 be fe a6 b0 bd e8 2e f3 3c 38 1f af bc
       -0.14115731 -0.08625601 0.029685453 -0.021377191
000040 fc e4 c4 3d 05 85 7d bc d1 83 30 bd e1 d1 be 3d
       0.09613988 -0.015473609 -0.04309446 0.09317375
000050 31 cb b6 bb c9 ee ea 3d cb 85 4c 3d ef c7 39 bd
       -0.0055784215 0.11471326 0.049932282 -0.045356687
000060 b2 ed c7 3c 85 f2 e4 3d 9c 3c 34 3d 9f ed 03 3e
       0.024405334 0.111790694 0.044003114 0.12883614
000070 d8 97 a3 bc 78 dd 11 bd 39 17 11 be 34 b0 7a bd
       -0.019969866 -0.0356116 -0.14169015 -0.061203197
000080 3b 9d a1 bd e7 fa 0e 3e 25 e7 07 bd 09 13 06 bd
       -0.078913175 0.13962899 -0.03317942 -0.032732997
000090 7a 01 e0 bc f5 37 cf 3d 98 4b a8 3c 17 48 92 3c
       -0.027344454 0.10118095 0.020543858 0.01785664
0000a0 45 65 bb 3c 27 2e b7 bd 8a 59 03 3d c5 9a e0 3d
       0.022875438 -0.0894435 0.032067813 0.1096702
0000b0 15 4f f5 bd f7 3a 1d bd e8 b0 fa bd 93 83 63 bd
       -0.11977974 -0.03838631 -0.122407734 -0.0555454
0000c0 22 33 31 3e d2 e5 a4 3d 78 65 48 3d 49 ec 3a 3d
       0.17304662 0.08051647 0.048924893 0.045635495
0000d0 f7 c6 d8 bc ed 09 c0 3d 1c 62 d9 bb f4 0a 58 3d
       -0.026462061 0.09376893 -0.00663401 0.05274482
0000e0 4b d6 0b bd 65 ab 18 3d b7 53 7e bb d8 d4 1a 3c
       -0.034139913 0.03727283 -0.0038807222 0.00945016
0000f0 b0 30 4d 3d 1e 76 da 3d cb 33 f9 3d 09 51 a5 3d
       0.05009526 0.1066706 0.12168082 0.08072097
000100 e5 4b e7 3d dc 6e 69 3d a1 0d 87 bd 56 8f 8b 3d
       0.112937726 0.05699049 -0.065943964 0.068144485
000110 86 7e 6f 3d 08 c3 11 3b 5d 36 46 bc 45 68 90 bd
       0.05847027 0.0022241492 -0.012097922 -0.07051138
000120 9d e3 30 3e ed 95 be 3c 18 42 50 3c 07 56 00 3e
       0.17274328 0.02326485 0.0127110705 0.12532817
000130 a6 52 a9 3d 1a a9 02 3d 60 8b 37 3e 70 52 17 be
       0.08267717 0.03189955 0.17924261 -0.14777541
000140 76 d9 24 bd b1 46 e8 bd 82 7f c3 3d 67 ad ca bd
       -0.04024645 -0.11341608 0.095458046 -0.09896355
000150 75 a7 ca 3c e4 9d 68 bc ee ea df bd c2 af e9 bd
       0.024738053 -0.0141978 -0.10933481 -0.11410476
000160 9f 37 99 bd 06 b4 00 be a2 f8 73 bd 78 95 23 bd
       -0.07481312 -0.12568673 -0.059563287 -0.039937466
000170 b0 35 18 3d 7a e7 ca 3d c7 a9 06 bc 8a db 29 3c
       0.037160575 0.09907432 -0.008219189 0.010367284
000180 14 8d 84 3c a5 9a f7 3d 7e ed 0e 3e d1 51 80 3d
       0.016180553 0.12090043 0.13957784 0.06265605
000190 f1 e3 dc 3b 49 a3 2f bd 74 ae 61 bd cb 7c 56 bd
       0.00674104 -0.04288033 -0.055098012 -0.052365106
0001a0 39 20 81 bc 25 06 af 3c 56 e6 89 39 a5 50 17 3c
       -0.015762435 0.021365235 0.0002630229 0.009235536
0001b0 ac 93 86 bd 9d 50 2f 3d 36 95 d4 3d 9a 72 a2 3d
       -0.06571135 0.04280149 0.10380022 0.07932015
0001c0 3a 33 bc 3c 24 93 5f 3d c4 ee f3 bb 5a 77 a1 bd
       0.022973645 0.054583684 -0.0074442346 -0.07884093
0001d0 25 c4 24 3d 8a e5 91 3d 66 c5 a9 bc 08 66 5c 3d
       0.04022612 0.07123859 -0.02072401 0.053808242
0001e0 a2 51 86 bc 10 26 3d 3d 1c 82 bf 3d 73 15 1c be
       -0.016396347 0.046178877 0.09350988 -0.15242557
0001f0 8f c3 e0 3d e9 b1 66 bc 07 56 49 3d 0d 41 80 ba
       0.109748 -0.014080503 0.049154308 -0.0009785012
000200 b3 70 00 3b 45 c6 be 3d 39 17 37 3d 03 67 0f bc
       0.0019598424 0.09315161 0.04469988 -0.008752587
000210 fa 21 be bd f7 15 a9 3a 53 26 a0 3d d5 8c 85 bd
       -0.09283824 0.0012900223 0.0781981 -0.06521002
000220 c4 bd 83 3d fb 00 71 3d b3 80 c0 3d 0a d4 33 bd
       0.06432679 0.058838826 0.093995474 -0.043903388
000230 f8 c9 31 3e 57 65 cd 3c 25 ff c3 3c 9f 68 81 3c
       0.17362201 0.025072737 0.023925373 0.015796958
000240 35 ec 33 bd 5e ad 93 3c 44 9a a3 3a 53 6e 13 bd
       -0.043926436 0.018027004 0.0012481888 -0.035993885
000250 83 f7 0a be f8 66 08 be ae 58 6c 3c 35 85 d9 3c
       -0.1357098 -0.1332053 0.01442544 0.026552776
000260 04 eb d6 3c ac f3 e2 bd 1f cc c1 3c c0 b9 86 3c
       0.026235111 -0.11081633 0.023656903 0.016445994
000270 01 ed 26 bd d5 c3 ab 3d 9c 8a 17 3d 1f 7c 07 ba
       -0.04075337 0.08386961 0.036997423 -0.0005168337
000280 df 9d a4 3d b1 64 b2 bd 7f 8e 9f 3d 31 e3 10 3d
       0.08037924 -0.087106116 0.07790851 0.035372917
000290 1d 99 27 3e dc 48 26 3d bb 3c a8 bc f9 cf 78 3d
       0.16367002 0.040596828 -0.020536771 0.060745213
0002a0 49 86 32 bd 1c 05 6c 3d ae 86 46 bb 6d a1 f9 3d
       -0.043585096 0.05762206 -0.0030292678 0.12188993
0002b0 5b 47 13 3c d2 ae 3c bc 9d ce 64 3d 7b 5e 61 3c
       0.00898918 -0.01151629 0.055861104 0.013755436
0002c0 71 eb 98 3d 53 d7 c1 3d c6 e3 b7 3d a4 65 fd 3d
       0.07466782 0.09464898 0.08978991 0.12372902
0002d0 b2 6c 8c bd 76 7c c3 bd c4 27 e1 bc 0e 7b 01 be
       -0.068566695 -0.095452234 -0.027484782 -0.12644598
0002e0 1b ae 42 3d 90 81 a0 bb 64 cf a8 3d 89 3c 04 be
       0.04752932 -0.0048982576 0.082426816 -0.12913717
0002f0 4f 8e 76 3d aa 0b 69 bd 40 26 6d 3d eb 69 c6 bc
       0.06019431 -0.05689589 0.057897806 -0.024220427
000300 0e 23 b8 3d 23 7c 02 bd fc 0a 6f 3d b8 5e 9a 3d
       0.08991061 -0.031856667 0.058360085 0.075375974
000310 cd 08 7e bc 72 22 be bc a3 9b 2d 3d 0a 39 82 bd
       -0.015505028 -0.023209784 0.042384755 -0.063585356
000320 e5 74 05 3e 83 d7 96 3d 46 8a 01 3c e0 57 9a 3d
       0.13032873 0.07365324 0.007906502 0.07536292
000330 41 6d 27 3e 5e ef b5 3c f2 cb 7e bc 86 cc 8d bc
       0.16350271 0.022208866 -0.015551554 -0.017309438
000340 b7 e5 bc 3d 7f 8f a9 3d c2 11 8a 3c ba 93 ba 3b
       0.09223502 0.08279323 0.01685417 0.00569388
000350 cb e9 da 3c 3a fd 34 3e 4c f9 75 bd 21 11 c5 bd
       0.02672281 0.17674723 -0.0600522 -0.09622408
000360 b2 1f 8d 3d 90 f8 09 3e e6 d9 92 3d b8 87 a3 3d
       0.06890811 0.13473725 0.07170467 0.07984871
000370 4f 44 79 bb 53 8a 11 3e 63 9d 2b bd b4 ef 32 39
       -0.00380351 0.14212923 -0.041898143 0.00017064699
000380 29 15 63 3d b4 78 a8 bd d6 f7 64 3d 76 5e e0 3d
       0.0554401 -0.08226147 0.055900417 0.10955517
000390 5b 77 e6 bc 26 62 c1 bc 47 0e 14 bd 8c 5e 9a 3d
       -0.028133085 -0.023606371 -0.03614643 0.07537565
0003a0 8c d2 03 3d ab e0 ab 3c c5 d9 70 bc 91 cc 03 bc
       0.032183215 0.020981153 -0.014700358 -0.008044378
0003b0 f8 68 32 3e 99 66 94 3c 2c 7f 6e bd d3 1f 85 3d
       0.17422855 0.018115329 -0.05822675 0.065002106
0003c0 77 f7 bd 39 e0 f6 9a 3d 76 1c e7 3c 02 dd 14 bd
       0.00036233265 0.07566619 0.028211813 -0.036343582
0003d0 e3 28 b8 3d fd 38 94 3c ce 9a 3b bd 72 60 d4 3d
       0.089921735 0.01809358 -0.04580193 0.10369958
0003e0 5a 87 84 3d 86 f1 0b be 0b 50 8a 3d 7e 87 5a bd
       0.06471129 -0.13666353 0.06753548 -0.05335187
0003f0 8f f3 a8 3b e4 6c 6d bd a1 7b 1d 3c 85 84 6b bd
       0.0051559876 -0.057965174 0.009611995 -0.057499427

4.bias f4 [128]
000000 cc 1d 24 bd 76 5e 17 bd 7d dc d4 3c bf 85 95 3c
       -0.04006748 -0.03695532 0.025984043 0.018252252
000010 7d fa f1 bd 35 c2 51 3d dd 63 57 bd c4 fe d2 3c
       -0.11815355 0.0512106 -0.05258547 0.025756247
000020 2f 19 2e 3d c0 15 b0 bc a4 57 69 3d 8b a0 61 3c
       0.042504486 -0.021494746 0.056968346 0.013771187
000030 9c eb 11 bd aa d3 50 3d de 23 ad bc ac 9d b4 bc
       -0.035625085 0.05098311 -0.021135267 -0.02204784
000040 c9 9b 7d bd 1e 66 8f 3c eb ff 1d bd 98 d2 62 bd
       -0.061916146 0.017504748 -0.03857414 -0.05537662
000050 6e 87 8c 3c 79 eb 82 bd 46 e9 c7 bd 9a 50 96 bd
       0.017154422 -0.06392569 -0.0976129 -0.07339592
000060 65 7b 32 bc 96 ae 96 bd 75 60 b3 bc 57 db 14 3d
       -0.010893677 -0.073575184 -0.02189658 0.03634199
000070 0a f0 97 3d e7 c9 b7 3c 1a 3c 87 bd 14 1e 09 bb
       0.07418831 0.022435142 -0.0660326 -0.002092247
000080 b6 e1 a2 bd ef 05 d1 bc d8 d3 a5 bc e4 a1 f3 bc
       -0.07953207 -0.025515525 -0.020242617 -0.029740281
000090 74 e2 4f 3c 66 ef 1d bd 44 19 43 3d ed f5 8c bd
       0.012688268 -0.038558386 0.047631517 -0.06882844
0000a0 fa 13 7e bc 48 ad 8b bc dd b5 ae 3d 21 32 da 3c
       -0.0155076925 -0.0170504 0.085307814 0.026635231
0000b0 38 8c 1e bc 54 a7 e2 3c 5d 2f bf 3c b4 a4 85 3d
       -0.009676985 0.027667679 0.023338014 0.06525555
0000c0 bc 9a 22 3d 6a d6 98 3c 6f 81 97 3b a6 e9 f0 3c
       0.039698347 0.018656928 0.004623584 0.029408287
0000d0 ce a8 f4 3c bc 15 6c 3c 95 d7 0f bd 57 2f ee 3b
       0.029865649 0.014409479 -0.035117704 0.007268827
0000e0 61 da 6c bc 6f 2f 65 3d 2a ba 24 3d c3 06 2c 3d
       -0.014456362 0.05595344 0.040216602 0.041998636
0000f0 b9 1a 62 3d d6 93 f6 3a a4 5b a0 bd 8d 26 e0 3b
       0.055201266 0.0018812369 -0.07829979 0.006840533
000100 a9 03 30 bd 40 fa cf bd 13 50 68 3c 92 76 20 bd
       -0.04297224 -0.10155153 0.014179247 -0.039175577
000110 6c a2 c2 3b 79 db 46 bc a6 47 a2 bd 44 68 b2 3c
       0.0059397724 -0.012137287 -0.07923822 0.021778233
000120 e6 31 13 bd 49 8f a6 bd a9 b2 f3 3c 07 f0 f3 bc
       -0.03593626 -0.08132798 0.029748278 -0.02977754
000130 03 f3 48 3b 1f 4c ce bc 85 85 14 bd 97 b6 61 3c
       0.0030662424 -0.025182782 -0.036260147 0.013776443
000140 cf 14 ff 3b ec d2 65 3c a7 99 d4 bc fc ea 9b bb
       0.007784463 0.0140273385 -0.025952173 -0.004758237
000150 c7 7b 3f bd 3c 51 26 bd 5b 0b fc 3c 71 86 06 3c
       -0.046748903 -0.040604815 0.030767133 0.008210764
000160 31 6e 7c bd 73 48 f1 3c 0a 07 b1 3b e4 e9 9a bc
       -0.061628524 0.029453492 0.0054024504 -0.018910356
000170 59 e4 ce bc 62 87 ad bc 06 12 ab bb 79 7b 56 3d
       -0.025255369 -0.02118272 -0.0052206544 0.052363846
000180 5e 13 93 bd b7 25 c2 3c 14 74 c5 3b be 80 17 3d
       -0.071814284 0.023699624 0.0060258005 0.036988012
000190 f9 14 d5 3b 26 20 dc bc 2e 9f ef 3c 27 d2 5e bd
       0.0065027443 -0.026870798 0.029250707 -0.054399636
0001a0 0d 44 b7 bd 78 35 a2 bd 68 31 50 bd 44 04 84 bc
       -0.089485265 -0.079203546 -0.050828367 -0.016115315
0001b0 aa 3c f8 ba 55 bc 5c 3d f2 79 74 bd 0d 0f b5 bb
       -0.0018938978 0.053890545 -0.05968661 -0.005525476
0001c0 3f 92 3d bd 08 b6 60 bd d1 97 92 bd 02 b2 00 3c
       -0.04628205 -0.0548611 -0.07157863 0.00785494
0001d0 90 57 d5 3c 03 07 86 3d e1 fd bc 3c a9 65 a7 3c
       0.02604273 0.06544306 0.023070278 0.020434218
0001e0 90 16 c6 bc 2b 9b b7 ba 3d 00 13 3a a8 d9 59 bd
       -0.02418068 -0.0014008036 0.00056076405 -0.05318609
0001f0 42 3f b5 bd 3b a0 80 3c e5 fc f9 bc 91 c8 c8 bd
       -0.08849956 0.015701404 -0.030516097 -0.0980388

6.weight f4 [12, 128]
000000 16 4a a8 3c 2d 12 33 bc 53 37 3f bd ca 00 45 3d
       0.02054314 -0.010929626 -0.04668362 0.048096456
000010 07 03 20 3b 20 cc 15 3d 06 40 cf 3c f5 4f 96 3a
       0.0024415867 0.036571622 0.025299083 0.0011467921
000020 7c 8b 9a 3c 4a 0a e4 3b 8e 4e a5 bc ff 0e 94 3a
       0.01886534 0.0069592344 -0.02017906 0.0011295973
000030 97 83 8a 3c 24 1f 90 bb a9 84 26 bd b9 d4 a1 bd
       0.01690845 -0.0043982435 -0.04065386 -0.07901902
000040 c2 e8 cd 3c 06 af 08 3d e6 5e 03 3d 5a 6e 35 bc
       0.025135402 0.03337004 0.032072924 -0.011073673
000050 0a a2 82 3c 7d 21 ac 3d 56 c1 30 3c 0c cd 84 3d
       0.015946407 0.08404825 0.010788282 0.06484422
000060 de 94 3a 3d 56 95 72 3d 60 69 85 3d f2 65 1c 3d
       0.045552127 0.05922445 0.06514239 0.03818316
000070 67 d9 95 bd 22 57 fe bc 30 cd c7 3d 2c a2 b0 bc
       -0.07316857 -0.031047408 0.09755933 -0.021561705
000080 f1 c2 2f bc 46 13 2b 3d d2 af 89 bd 69 5f 3c bd
       -0.01072763 0.041766427 -0.06722988 -0.045989428
000090 31 61 ad 3c 6e b7 57 3d 0e 47 ab 3b 38 82 25 3d
       0.021164509 0.052665167 0.0052269762 0.04040739
0000a0 6e 39 80 bd d2 09 60 3d 55 2d 26 3d cb a3 8d bd
       -0.06260954 0.054696865 0.040570576 -0.06916007
0000b0 ef 0d 9b bc 43 63 ad 3b 88 f1 5a 3b 23 02 ba 3c
       -0.018927542 0.005291374 0.0033408124 0.022706097
0000c0 c8 18 2b 3c 17 01 d8 bc 59 66 1e bd f7 6a a0 bb
       0.01044292 -0.026367707 -0.038671825 -0.0048955637
0000d0 85 1d c8 3c bb af a4 bc 84 ec 8e 3c fe ac 08 3d
       0.024428139 -0.020103326 0.017446764 0.033368103
0000e0 bc 99 fd bc 5b 04 c0 bd fa 65 cb ba 7a 83 4f bc
       -0.030957095 -0.09375831 -0.0015518062 -0.012665624
0000f0 57 a0 fd 3b 5f f1 ac bd 24 fa 54 3c 27 31 5c bc
       0.0077400613 -0.084444754 0.012999091 -0.013439453
000100 31 a2 ca bb ff 5e 88 3d 85 bf d0 bc a8 1e 1c bd
       -0.0061838855 0.06658744 -0.025481949 -0.038115174
000110 95 d3 69 bc be cf 05 bc 89 5f 2b 3d 15 52 1d bd
       -0.0142716365 -0.008167205 0.041839156 -0.038408358
000120 b3 e9 08 bd b1 ef 33 b7 f8 7b 08 bd 35 42 8f 3d
       -0.033425998 -1.0725039e-05 -0.03332135 0.0699505
000130 ce e3 6f bd d4 f7 3f bd 8d 0a dd 3c 85 53 32 bd
       -0.05856686 -0.046867207 0.02698257 -0.04353668
000140 b9 55 34 ba 3a e8 8c 3c 93 42 c5 bc ce d0 78 3c
       -0.0006879229 0.017200578 -0.024079597 0.015186502
000150 b7 ae a4 3c ad 34 a5 bc 1e f5 a6 bc dd b6 33 3d
       0.020102842 -0.02016672 -0.020380553 0.043875564
000160 c5 68 02 bd 5a 31 09 3d cb 4e 17 bd 73 99 17 bd
       -0.031838197 0.03349433 -0.036940377 -0.037011575
000170 5e f4 ad bc de ed 5c bc a0 4a 4e 3d 91 b2 c9 3c
       -0.021234687 -0.013484446 0.050364137 0.02462128
000180 7e 5e 2b 3d 39 f5 c5 3c 39 37 c3 bc 03 ac 22 3d
       0.04183816 0.024164783 -0.023830043 0.039714824
000190 2f 5d 3e 3b 20 0d fe b8 4b 50 93 3c 2b 29 9a bd
       0.002904724 -0.000121141085 0.017982623 -0.075273834
0001a0 85 37 85 3c 7e ae 4f 3c c5 21 32 3c e6 37 39 bd
       0.016261825 0.0126758795 0.010872309 -0.045219325
0001b0 bb 00 9c 3d 3f 8a 4e 3d 69 85 97 3b b7 b4 fa 3c
       0.07617327 0.05042481 0.004624058 0.03060375
0001c0 f4 03 96 bc 41 91 71 bc 9a 01 6a bd 52 7f 00 bd
       -0.018312432 -0.014744104 -0.057130434 -0.031371422
0001d0 85 02 27 bd c0 e1 4b bd f3 11 53 3b 84 f1 e7 bb
       -0.040773887 -0.04977584 0.0032206743 -0.0070783515
0001e0 2b 54 28 bd d3 27 a2 bc 9c b2 66 bc 57 3d bd bc
       -0.041095894 -0.01979438 -0.01408067 -0.023100538
0001f0 a2 04 34 bd 3c bf 5e 3c c7 af 89 3d d3 d4 23 bc
       -0.04394973 0.0135953985 0.0672298 -0.009999472
000200 5d 47 8e 3d fb c4 46 bd fd dc 26 bc da 3f a3 bd
       0.06947205 -0.0485277 -0.010184524 -0.07971163
000210 94 e3 02 3d d8 c5 51 bc 5a cf 2d bb 96 07 29 bd
       0.031955317 -0.012803517 -0.0026521296 -0.041267
000220 87 35 4a bc 54 39 23 bd 66 bb 5c bd 48 29 cc bd
       -0.0123418635 -0.039849594 -0.053889655 -0.09968811
000230 b4 0b 9e bd 24 4a cb bc d4 9d 60 bd 53 b8 52 bb
       -0.07717076 -0.024815626 -0.054838017 -0.0032153323
000240 0b 40 bb 3c f6 f5 3f 3d 2c 39 82 bb 73 e8 2b 3d
       0.022857687 0.046865426 -0.0039741006 0.041969728
000250 46 ec 8b bd ff ed 8e 3d a9 e5 e5 3c 1b 9a 01 3c
       -0.06832175 0.06978988 0.028063612 0.007910277
000260 01 82 56 bd 2a 67 8a 3d 0c fc 28 3d b5 2f e3 bc
       -0.052370075 0.06757958 0.041255996 -0.02773271
000270 3b ee 9c 3a cb 64 1c bc d8 0a 40 3d c8 51 c4 3c
       0.0011972854 -0.009545515 0.04688534 0.023964778
000280 1c 08 6e 3d 07 d8 05 3d 4e 4a 1c 3d 9c e9 6b bc
       0.058113202 0.032676723 0.0381568 -0.0143989585
000290 76 fd 20 3d c5 14 26 bb 3d 0c 0c bc 97 e3 5a bd
       0.03930422 -0.002534197 -0.00854784 -0.053439703
0002a0 2c cb 0c bd 40 15 88 3d 92 86 54 bd 1d f7 5c bc
       -0.034373447 0.06644678 -0.05188615 -0.013486651
0002b0 3e 47 ed bd 8f 5a 23 3b 22 dc 46 bd bf f5 67 3c
       -0.11585854 0.0024925803 -0.04854978 0.0141577115
0002c0 b9 22 43 3c 3a 29 dd bc b5 f0 cf bd 56 40 51 bd
       0.011910134 -0.026997197 -0.10153333 -0.051086746
0002d0 01 52 c0 bd 44 19 5e bc 44 ae d7 3c 76 9a 3f bd
       -0.09390641 -0.0135558285 0.026328214 -0.046778165
0002e0 ec 3c c5 bc c4 c5 3f 3d 63 8e a2 bd 65 ad c6 bb
       -0.024076901 0.046819463 -0.07937314 -0.0060631507
0002f0 fa 1f b2 3c 53 6a 7e bd 41 ca 1b 3e 70 b6 1c bd
       0.021743763 -0.062113117 0.15213872 -0.038259923
000300 75 43 f3 3d 13 e7 62 3d 87 5b 36 bd a0 de c7 3d
       0.11878101 0.05539615 -0.04452088 0.09759259
000310 87 d2 0d 3c 2b 77 2c 3d b5 82 06 3d c7 b2 ce 3d
       0.008656151 0.042105835 0.032839496 0.10092693
000320 f7 02 b3 bd 41 d2 8f 3d 63 4b a6 bd aa bc 3b bd
       -0.087408 0.070225246 -0.081198476 -0.04583422
000330 87 32 3e 3d 9f 2c 5e 3c 3b 57 b2 bd c1 c2 08 3b
       0.046434905 0.013560443 -0.08708044 0.0020868035
000340 63 ff b7 bc dd c3 5b 3d 0b 9d 09 bd 1d cc 9b 3d
       -0.022460645 0.053653587 -0.033597033 0.07607291
000350 92 9f 92 3d 9c 55 6c bd 87 b4 30 bc ad 3c a8 3c
       0.07159342 -0.05769883 -0.010785229 0.020536745
000360 15 c5 b7 ba 3a a3 76 bd a7 90 f4 3b d6 df fe 3c
       -0.0014020527 -0.06021426 0.007463533 0.031112593
000370 50 39 4b bd 8f bd 0c bd 3d 00 5b bd 8b 8e 43 bc
       -0.049615204 -0.034360465 -0.053467024 -0.01193584
000380 fd c1 f2 3a 82 cb 63 bc ff af df bd 8b 86 b0 bd
       0.0018520948 -0.0139035005 -0.109222405 -0.08619412
000390 fb af b5 3b 23 65 8a 3d 68 52 b5 bd cb 0b 85 ba
       0.00554466 0.067575715 -0.08853608 -0.0010150609
0003a0 dd b5 da 3c 25 b2 38 bd 9b b2 cc 3c 12 cb c8 3a
       0.026698047 -0.045091767 0.02498751 0.0015319309
0003b0 f7 72 1d 3d cd 8d c3 3c cd 98 a9 bd c3 8b ce bc
       0.038439717 0.023871327 -0.082810976 -0.025213128
0003c0 8d f1 8d bc 80 42 9d 3d 77 98 88 3d 7e 92 10 bd
       -0.017327094 0.076786995 0.06669705 -0.035295956
0003d0 15 29 05 be 93 52 83 bd 46 1c 19 3d 6a 56 55 bd
       -0.13003953 -0.06412234 0.03738048 -0.052084364
0003e0 50 00 0d 3e b0 0b 80 bd 17 b6 52 3d 3a 9a 35 bd
       0.1376965 -0.06252229 0.051443186 -0.044336535
0003f0 21 06 98 bd d1 14 04 bc 17 fd 59 bd 0a ff 8c 3c
       -0.07423044 -0.008061604 -0.05321988 0.017211456

6.bias f4 [12]
000000 c3 cf dd bd 52 05 0a 3d af 27 00 3e e0 17 d1 3d
       -0.10830643 0.03369648 0.12515138 0.10209632
000010 a3 f2 4a bd 05 b5 5b 3d d6 63 73 bd 27 46 b5 bb
       -0.049547803 0.05363943 -0.059421383 -0.0055320445
000020 88 ae a5 3c c6 e6 93 3d 4a ab b7 bc 6c 70 3c 3d
       0.020224825 0.07221751 -0.022420544 0.04600565
