examples/checkpoints/go1/go1_him.onnx (onnx, 977557 bytes, 14 tensors)

actor.0.weight f4 [512, 64]
000000 ab b4 0a be 63 6a 31 bd 7b c9 ae 3e b6 6b 41 be
       -0.13545482 -0.04331435 0.34138092 -0.18888745
000010 23 86 0b 3e 84 b4 2c 3c 0f 7f ca 3e ca 41 07 3f
       0.13625388 0.010541085 0.39550063 0.5283476
000020 1c ec 06 3e 06 42 11 bf 85 6b 8d be 1a b6 fd 3d
       0.13176006 -0.5674137 -0.27621093 0.12388249
000030 ef 68 5f bd 17 0f 0d 3e 55 b7 94 be fb 00 8a 3e
       -0.05454343 0.13775288 -0.2904612 0.26953873
000040 46 e8 52 be 02 b2 76 be 73 62 0f be 03 5f b1 3e
       -0.20596418 -0.24091342 -0.14002399 0.346428
000050 2e 35 30 be 12 4f f4 bd 10 e1 d6 bd eb 61 0d bd
       -0.17207786 -0.11929144 -0.10492146 -0.03451721
000060 2c f3 0e bd d1 d9 38 3e fb 3c 53 bd 33 d4 ba be
       -0.034899876 0.1805184 -0.051571827 -0.3649002
000070 42 b0 85 be 75 f1 39 bd 32 32 64 be aa 9b 12 3e
       -0.26111037 -0.045396287 -0.22284773 0.14317194
000080 6b ff 4b bd cc 76 0a bd b8 cc 9b bc 6d 95 29 3d
       -0.049804132 -0.0338047 -0.019018516 0.04140227
000090 0d 0b 84 3c 36 fd b0 bd 30 30 2f bd 86 f6 19 3e
       0.01611855 -0.08642046 -0.042770565 0.15035447
0000a0 59 47 0a be 65 21 59 bc 90 5e cd bc e5 9d a9 3d
       -0.1350378 -0.013252591 -0.025069505 0.08282069
0000b0 57 4a b3 bd 1b 4a 9b 3d 64 dd e3 3d 75 38 16 3e
       -0.087544136 0.07582494 0.11126211 0.14669974
0000c0 05 3d 03 be f2 07 3f be 23 3d d3 bc 9a 01 f9 bd
       -0.12816246 -0.18655375 -0.025785988 -0.121585086
0000d0 96 43 d4 3d bc 1f a2 bc 07 8d a3 bd 1d 38 57 bd
       0.103644535 -0.019790523 -0.07985883 -0.05254375
0000e0 f0 e3 9c 3c 2a 98 41 3e 76 f3 a6 bd b3 45 5a 3d
       0.019151658 0.18905702 -0.08151905 0.053289127
0000f0 5c 91 94 bc 24 0f 11 bc 13 98 52 bd 18 7a b0 3c
       -0.018135719 -0.008853707 -0.05141456 0.021542594
000100 f6 f9 8b bc 5a 45 4d bd 5c 4b be 3e 9d 94 4c be
       -0.017086964 -0.050114967 0.3716687 -0.19978566
000110 99 23 cd be 48 e5 11 be ee 94 62 3e 82 5c 96 be
       -0.4006622 -0.1424762 0.22127125 -0.29367453
000120 62 57 55 3d a7 dd b4 bd 87 8a 96 3e 57 5a ea 3c
       0.052085288 -0.08831339 0.29402563 0.02860753
000130 e0 56 95 bd 3d 5d ac be a5 73 20 be d7 92 02 3e
       -0.07291961 -0.33664885 -0.15669115 0.12751327
000140 16 be 72 be d7 2e 03 3e ba 52 08 3d db 1e ba bd
       -0.23705325 0.12810837 0.03328202 -0.090879165
000150 69 a1 80 bd 72 1e 21 be c5 05 66 bd 06 dc a3 bd
       -0.062807865 -0.1573427 -0.056157846 -0.080009505
000160 60 f7 45 3d 5d 92 28 3f b6 d6 f6 3d cd 6d 28 3d
       0.04833162 0.6584833 0.120526716 0.04112034
000170 df 1a cc bd 44 99 ce 3e 2d 07 3c 3d cc bd 0c be
       -0.09966063 0.40351307 0.04590528 -0.13744277
000180 c2 2e c3 bd f4 c5 66 3d 96 40 7f 3d 55 b7 ad bd
       -0.09530403 0.056341127 0.062317453 -0.084822334
000190 03 52 89 3d 93 9c 94 bd 34 c0 91 3d f4 1d 1a be
       0.067050956 -0.07256427 0.07116738 -0.15050489
0001a0 ef b1 27 be 32 ff 47 3b 9e f2 45 bd db 92 bf 3c
       -0.1637647 0.0030517098 -0.04832708 0.023385456
0001b0 32 0d f3 bc 39 dc 7b 3e fa ec 1f 3e 55 2e 01 3e
       -0.029669378 0.24595727 0.15617743 0.1261533
0001c0 0c eb 5c bd 37 19 94 bd b1 3f da bd 79 23 f4 bd
       -0.053935096 -0.07231372 -0.106566794 -0.11920828
0001d0 86 62 0c 3e 96 29 82 bd a4 00 b4 bd 26 8c 3a bc
       0.13709459 -0.06355588 -0.08789185 -0.011385953
0001e0 7d 33 c2 3d cf 49 a6 3c 7a 9a 42 3d f4 75 49 3c
       0.09482477 0.020298867 0.0475106 0.012296189
0001f0 a9 88 96 3d 9c bf bc 3d f7 83 a7 bc c6 eb 89 3d
       0.073502846 0.09216234 -0.020448668 0.06734423
000200 72 88 82 bc 37 e5 ec 3d 98 fc 85 be 1f cb 2f 3e
       -0.015934203 0.11567157 -0.26169276 0.17167328
000210 dd 93 81 be 81 4e 39 be 82 ea 7f be 41 a5 da 3d
       -0.25308123 -0.18096353 -0.24991801 0.10676051
000220 2a 24 1d bd 56 5e cc 3e 9d 35 d8 bc 04 92 b4 3d
       -0.038364567 0.39915723 -0.026392752 0.08816913
000230 0f 17 53 3e c2 2c 33 bd ac d5 32 be f9 8c fe 3a
       0.20614265 -0.043743856 -0.17464322 0.0019420675
000240 d4 80 48 3e f0 1b 5c be d6 9a 2c 3e 82 0a cd be
       0.19580394 -0.21495032 0.1685594 -0.4004708
000250 75 66 a6 bc 02 de 39 3c f4 d9 23 bd 6a 06 bc bc
       -0.020312527 0.011344435 -0.04000278 -0.022952277
000260 4c e3 0c be 07 e5 9b be af ca 71 be d5 9b 67 3d
       -0.13758582 -0.30448171 -0.23612474 0.056545097
000270 6f 8b 4d 3d 29 af 7c be 09 21 9d 3e 1d d8 76 bd
       0.050181802 -0.24676193 0.30689266 -0.060264695
000280 c4 59 58 3d ea 47 91 3d d4 50 32 bc 28 f3 34 bc
       0.052819982 0.07093795 -0.010883529 -0.011044301
000290 40 2a 83 39 77 7c 72 3c fa 9a 13 3d 08 81 c5 bc
       0.00025017746 0.014800183 0.03603647 -0.024109378
0002a0 f0 e4 82 bc 91 b6 d7 3c 43 b0 4d 3d ef f3 3b bb
       -0.015978307 0.026332172 0.050216924 -0.0028679331
0002b0 6f 1c b2 bc 04 4d 3d be 93 29 e3 3c ca 2a cd 3c
       -0.021742074 -0.1848641 0.027729785 0.025044817
0002c0 13 2a d0 bd 64 04 bf bd 78 7f 46 bd 04 fb 85 bc
       -0.10164275 -0.09327009 -0.048461407 -0.016355045
0002d0 a4 9b 5b bc a3 6c a2 bd 94 b4 b2 bd 98 38 4c bd
       -0.013403807 -0.07930877 -0.08725849 -0.04985866
0002e0 20 39 ed bd d8 04 05 3e 6d ea 66 3d ae 7a 0f be
       -0.11583161 0.12990129 0.05637591 -0.14011642
0002f0 fc 7e bf 3b 67 a3 f8 bd 98 64 9c bb 1d cb d9 bd
       0.005843995 -0.121405415 -0.004772734 -0.10634444
000300 ab dd 3c 3e 37 79 cc bd 90 ac 41 3e 16 f0 cb 3d
       0.18443935 -0.099840574 0.18913484 0.09957902
000310 1a 9b 69 3c 71 42 22 bd 38 b1 5d 3e 8e 5e 2f be
       0.0142581705 -0.039614145 0.21649635 -0.17125914
000320 18 25 64 3e d9 27 e5 bc f8 83 7f be b6 94 63 3e
       0.22279775 -0.027973102 -0.24952686 0.22224697
000330 ce 27 12 3d 5f 9c d0 bd d5 6f 7d be 1a e7 87 3d
       0.035682492 -0.101860754 -0.24749692 0.06635876
000340 eb 53 9b 3d cc e0 8c 3e db 6c bc 3e 5d 79 66 3e
       0.075843655 0.27515256 0.368018 0.22507234
000350 09 06 29 bd f3 ba 18 3d 09 53 d2 be 96 85 dd 3d
       -0.04126552 0.037287664 -0.41078976 0.10816495
000360 1a 60 71 bd f1 91 27 3e c9 5d 9f bd 69 5a 74 bd
       -0.05892954 0.16364266 -0.0778156 -0.059656534
000370 ae cc 93 3e 47 f8 12 3e 62 8c 61 3d de 0f 8f bd
       0.28867096 0.14352523 0.05506552 -0.06985448
000380 db 57 94 be 72 bc 70 3d 3d e3 27 bc d0 e5 79 3b
       -0.28973278 0.058773465 -0.010247049 0.0038131364
000390 12 fe 3a 3d 49 e0 92 bd fb 7e 02 bd 00 c4 4f 3d
       0.045652457 -0.07171685 -0.03185938 0.05072403
0003a0 53 12 d8 3d 31 87 d7 bc f9 5b 95 bc d1 e4 52 3c
       0.1055037 -0.026309581 -0.018232333 0.012871937
0003b0 de 9b 14 3d 9d 55 01 be 4a de 39 bd 85 ec c1 3e
       0.03628146 -0.12630315 -0.045378007 0.37875763
0003c0 06 09 04 3d 40 bb 86 3d 94 8e 82 3d e6 43 93 3d
       0.032235168 0.06578684 0.06374851 0.07190685
0003d0 6c cb c3 bd ff 7a 15 3d 44 49 b3 bd 68 6e 92 3c
       -0.09560284 0.03649425 -0.08754209 0.017874911
0003e0 57 b1 01 3d b5 f7 29 3d da 5d a2 bd 73 fc dc bb
       0.031663265 0.041495997 -0.07928057 -0.0067439615
0003f0 1a 37 11 bd 3f 35 70 3d af 5c d5 3d 54 31 8d bc
       -0.03545294 0.05864453 0.104180686 -0.017235436

actor.0.bias f4 [512]
000000 14 e3 0a be e0 91 a1 bd 16 35 40 be d4 ae c3 bb
       -0.13563186 -0.078891516 -0.1877025 -0.005971769
000010 ea e2 39 3d 5e 54 32 be ad 03 70 3d 6c 91 0c 3c
       0.045382418 -0.17414996 0.058597255 0.008579593
000020 3e 8a 3d 3c 23 9d 0b bd d4 b0 1c 3d f8 cc 08 bc
       0.011568604 -0.034085404 0.038254574 -0.00834965
000030 5c 96 bb bd 36 fa 21 be f7 78 a9 bd 2d 90 a4 3d
       -0.09159538 -0.15818104 -0.08275025 0.08035312
000040 35 6b 0b be c8 45 00 be fb a6 ed bc 1e de 23 bc
       -0.13615115 -0.1252662 -0.029010287 -0.010001687
000050 4d 63 1c be 54 f9 9e bd 6d 83 f2 3c 7a 3f bb 3d
       -0.15272255 -0.07762399 0.029603684 0.091429666
000060 1e d4 4c bd 4f 39 02 be 9c 45 7e 3d e4 9d c6 bd
       -0.05000698 -0.12717174 0.062078103 -0.09698084
000070 b7 78 8c bb f0 06 3d bd ed 81 87 3c d4 6b a3 3d
       -0.0042868513 -0.046149194 0.016541446 0.07979551
000080 20 cc 00 bc 01 33 29 be 20 d4 23 3e aa 7b 25 3e
       -0.007861167 -0.16523363 0.15998888 0.16160455
000090 29 9a a4 3d 01 41 94 3d c2 5c b7 3d f8 52 1f bd
       0.08037216 0.07238961 0.08953239 -0.038897485
0000a0 40 dc f4 bd 08 07 22 3e 9c 34 88 bd f4 f3 a1 bd
       -0.11956072 0.15822995 -0.066506594 -0.079078585
0000b0 9c 5f 04 bd 3c fa 13 3d 5e b3 2f be 7d df 35 be
       -0.032317743 0.036127314 -0.17158267 -0.17761035
0000c0 6a 8e 0d be 97 6d 4a bd 17 a6 fa 3b 78 6b 28 bd
       -0.13823858 -0.04942092 0.007649194 -0.041118115
0000d0 23 0a e4 3c 70 90 ba 3d ea 74 db 3d d3 05 ea bd
       0.027836865 0.091095805 0.10715659 -0.11426892
0000e0 be 28 24 be 44 ba 44 3d 4f 88 b1 bd 29 20 61 bd
       -0.16031167 0.0480292 -0.08668577 -0.05496231
0000f0 9b 9c 6b 3d e5 44 97 bd cc 65 d8 3c 64 f2 72 bd
       0.057522397 -0.073861875 0.026415728 -0.059313193
000100 4b b6 27 bc 2a e5 af 3d 62 78 4b 3c 46 7c 78 3d
       -0.010236333 0.085886315 0.012418838 0.06066539
000110 3f 91 83 bd 0b 87 fe 3d f4 23 d1 3d a9 02 78 3b
       -0.06424188 0.12428101 0.10211936 0.0037843382
000120 e3 ae cb 3c 7e 81 b8 bd d2 ef a6 3d 21 43 97 3c
       0.024863666 -0.09009074 0.08151211 0.018464627
000130 9f 52 bf 3d 13 29 91 bc b4 3c bd bd d9 56 4d 3c
       0.093419306 -0.017719781 -0.09240094 0.012532913
000140 f3 89 82 bd ce a1 83 be cf 69 8e bc db 68 d7 3d
       -0.06373968 -0.25709385 -0.017384438 0.105180465
000150 4e ab ca bd 34 4c e2 3d c1 1e 5d 3d 83 f5 c2 3a
       -0.09895955 0.11049691 0.053984407 0.0014874194
000160 06 5d bd bd 10 16 18 bc ca 78 ed bc 9b 66 99 bd
       -0.092462584 -0.009282604 -0.02898826 -0.074902736
000170 18 da bd 3d cf 63 bd bd c3 04 52 be 64 74 84 3d
       0.09270114 -0.092475526 -0.20509629 0.06467512
000180 68 d9 05 bc f8 04 cd 3d 24 35 3c bd c4 5d f8 3d
       -0.0081695095 0.10010713 -0.045949116 0.121272594
000190 5e 4e 80 bd d4 4b fb 3c 50 46 b2 bd 81 d5 35 bd
       -0.06264947 0.030675806 -0.08704817 -0.044393066
0001a0 de aa d2 3d 91 ad b3 bd 8f ee d7 bd a0 0e 8b 3c
       0.102864966 -0.087733395 -0.10543548 0.016974747
0001b0 ab 06 45 3e 93 7b ba 3c dd 9b 27 3d 4e 8b 9a 3d
       0.19240825 0.022764003 0.040920127 0.075461015
0001c0 81 38 87 bd 81 86 d1 3d 36 76 56 be c3 72 8c bd
       -0.06602574 0.10230733 -0.20943531 -0.068578266
0001d0 3f eb 05 be a8 76 97 bc 51 60 d1 bd d6 ef b7 3d
       -0.1307802 -0.018489197 -0.10223449 0.08981292
0001e0 4e 63 8d bd 45 45 08 3d 87 9d 2b 3e e4 52 f5 3d
       -0.069037065 0.033269186 0.1675931 0.11978701
0001f0 31 24 a3 bd b6 53 3e 3d c2 c0 a9 bd ce 1b 18 3e
       -0.07965887 0.04646655 -0.08288719 0.14854357
000200 3e 21 e5 bc 22 cf 3d bd 90 d3 1e 3c a3 a9 19 bc
       -0.027969953 -0.046340115 0.009693995 -0.009378823
000210 f7 c7 25 bd 3e da 21 3d 2d bc 24 3e 35 fb d5 3d
       -0.040473904 0.039514773 0.16087408 0.104483046
000220 1a 62 08 bd d6 e1 b2 bd 9d ae c3 bd 23 bd f6 3d
       -0.033296682 -0.08734481 -0.09554789 0.12047794
000230 a6 0e 84 3d e1 98 08 3e 64 b1 06 be 48 f1 ee 3d
       0.064481065 0.13339569 -0.13153607 0.116671145
000240 3f 48 0b be 5b 0f 45 bd e9 59 16 be 8c f8 10 be
       -0.13601778 -0.048110347 -0.14682736 -0.14157313
000250 50 12 3e 3d c5 d3 2f bd 69 58 44 3d 28 3b d0 bb
       0.046404183 -0.04292657 0.047935877 -0.006354708
000260 e0 21 b9 3c e2 92 43 3e ee b9 4a 3d b9 ad bc 3c
       0.02259916 0.19099 0.049493723 0.023032056
000270 f1 fd b7 bd 21 a0 4f be 03 8c f0 bc 0c 0c 13 3e
       -0.08983982 -0.20275928 -0.029363638 0.14360064
000280 3a a8 95 3d 76 52 10 3e 5d 2b 9e bd ab 4c 84 3d
       0.07307477 0.14093956 -0.07723115 0.06459936
000290 5f 66 bd bc 4d 27 ac bd 14 15 fa 3d 66 3b c9 3d
       -0.023120103 -0.084059335 0.122110516 0.098257825
0002a0 dc 67 9e 3d c1 12 47 3d 50 ab a7 bc 40 56 61 3d
       0.07734653 0.04860187 -0.02046743 0.055013895
0002b0 77 3a f4 3c ca 6d d9 bd 1b 13 7b 3c 96 fa b6 3d
       0.029813034 -0.10616644 0.015324379 0.08934514
0002c0 cf 6f db bd f2 3d 2a be 7c 96 95 3d b1 71 97 3c
       -0.10714685 -0.16625193 0.07304093 0.01848683
0002d0 a9 60 b8 bd 51 65 bd 3c 73 ae 1b 3d ba 60 a8 3d
       -0.090028115 0.0231196 0.038008165 0.08221574
0002e0 57 ef b4 bd b5 c0 c3 3d 77 71 6f bd 0a 15 0c be
       -0.08834713 0.0955824 -0.058457818 -0.13679901
0002f0 68 04 d0 3d a3 9b f4 3b d3 32 d4 bd 0e ab 1f be
       0.101570904 0.0074648424 -0.103612565 -0.15592596
000300 3c 36 09 bd 67 ca 35 3d 87 58 b1 3d e4 8f a8 3d
       -0.033498988 0.04438248 0.086594634 0.0823057
000310 8b be 05 be 9d 0e 86 3d c6 b4 06 be fb c0 db bc
       -0.13060968 0.06545756 -0.13154897 -0.026825419
000320 ab d1 fd 3a 49 90 62 be 1d f0 18 be 5d 37 48 be
       0.0019364854 -0.22125353 -0.14935346 -0.1955237
000330 07 fc e3 3d c6 28 02 be 9d e8 1e be 38 9c 9a 3d
       0.11132055 -0.12710866 -0.15518422 0.075493276
000340 21 7e 50 bd 67 69 ef 3d c5 50 56 be b3 c7 cd bd
       -0.050901536 0.11690026 -0.20929249 -0.10047855
000350 a3 23 e0 bd 9f e2 91 3c ed 23 22 bc 75 6e 08 3c
       -0.10944297 0.017808257 -0.009896261 0.008327116
000360 e2 be 4b 3a 0e 68 9d 3d 7d 4c 05 be d6 2d c0 3c
       0.0007772279 0.076858625 -0.13017459 0.023459356
000370 a2 b3 0b 3e 19 38 1a 3e 71 65 dd bc d3 48 cd bd
       0.13642743 0.15060462 -0.02702591 -0.10023656
000380 61 90 39 bd 46 8a 49 be 49 00 c0 3d 25 8f 87 bc
       -0.045303706 -0.19681653 0.093750544 -0.016547749
000390 66 36 63 be f5 7a ec 3c 73 1b fa 3d bc 20 40 3e
       -0.2218872 0.028867224 0.12212267 0.18762487
0003a0 d0 3c f1 bc 74 eb 00 3e 77 45 f0 bd 04 ca e3 bc
       -0.029447943 0.12589818 -0.11731999 -0.02780629
0003b0 2c a5 2e 3d ed dd cb bd 19 90 e8 3c 88 9d ed bc
       0.04263799 -0.09954438 0.028389024 -0.02900578
0003c0 ee ea 44 3d 3e 78 f4 bd f7 68 85 bd 5e af c6 bd
       0.04807561 -0.11936997 -0.06514161 -0.097014174
0003d0 99 c3 14 bd 92 e4 07 bd 7b 6f cc 3c 74 eb 0b bd
       -0.03631935 -0.033176966 0.024955502 -0.034160092
0003e0 78 6b 23 bd 84 7b 93 bd 69 16 fe 3d 65 e7 0e bd
       -0.039897412 -0.07201293 0.12406618 -0.034888644
0003f0 92 ab 1d 3d f6 c7 1f be 83 86 05 3e b3 f9 9c bd
       0.0384937 -0.15603623 0.13039593 -0.07664814

actor.2.weight f4 [256, 512]
000000 e4 5a 43 bc fe b8 83 3d 95 9d bd 3c 92 88 02 be
       -0.0119235255 0.06431769 0.02314643 -0.1274741
000010 d5 6a 2c be 14 63 01 3e 89 70 26 be 15 44 8d bd
       -0.16837628 0.12635452 -0.16253866 -0.06897751
000020 cd 8a 1e be c9 00 20 be cb 70 8b bd 7b cd c1 bd
       -0.15482636 -0.156253 -0.06808623 -0.094630204
000030 a1 44 c2 bd 50 16 d5 bd 39 f3 11 3e b6 e7 b0 3d
       -0.09485746 -0.104046464 0.14252938 0.08637945
000040 f1 68 43 be d2 01 73 3b 95 ba a4 3c e0 11 80 3d
       -0.19083 0.0037079942 0.0201085 0.062534094
000050 23 77 8f 3c 43 ee 10 3d 79 7c 83 bd 8f 27 1d be
       0.017512864 0.035383474 -0.06420226 -0.15347122
000060 ff 82 52 bd 8e a1 30 bc c1 f8 1b 3c 0e d0 e1 3c
       -0.05139446 -0.010780705 0.009519757 0.027565029
000070 8f 2d dc 3d 21 b0 36 3d e4 04 af 3d 63 dd 49 bd
       0.10750877 0.044601563 0.08545855 -0.049283396
000080 aa 7a e2 bc 7d da 22 bd d0 e1 17 bd 71 16 c2 bd
       -0.027646381 -0.039759148 -0.037080586 -0.094769366
000090 9b a0 3c bd e6 8b f1 bd 9f 34 96 3d 55 b4 8b bd
       -0.046051603 -0.11794262 0.073342554 -0.06821505
0000a0 fb 08 ad 3c 48 9f c8 3c 82 f5 a2 bd f5 63 9e bd
       0.021122446 0.024490014 -0.07956983 -0.07733909
0000b0 0e ac 18 3e 09 4f 4a 3c e4 96 58 bc 71 3a ce bd
       0.14909384 0.012347945 -0.013219569 -0.100697406
0000c0 87 5b 3e bd b2 ed e2 3b 50 ac 5d bb 0c e6 43 bd
       -0.046474006 0.006925308 -0.003382463 -0.04782681
0000d0 d8 6d 82 3d eb ad 8d 3d 31 a8 e4 bc bb 89 42 be
       0.06368607 0.06917938 -0.027912231 -0.18997853
0000e0 9d 75 c2 bd 8c cc d1 bd 9c bc 25 3e 56 00 81 bd
       -0.09495089 -0.10244092 0.1618523 -0.06298892
0000f0 64 81 43 be 92 93 c7 3d c6 e2 5f 3c 51 04 4e bd
       -0.19092327 0.09744944 0.013664907 -0.050297085
000100 fa 62 77 be 9d fd 0d 3c 46 36 1c 3d d4 48 61 bd
       -0.2415885 0.008666423 0.038137697 -0.055001095
000110 74 7a 53 bd 6b 76 76 bc cc 1c 0e be af 95 0c bd
       -0.051630452 -0.0150428815 -0.13878173 -0.034322437
000120 82 82 71 bd ef 4c 01 3e 6d 55 52 3d 7d 39 99 bc
       -0.058962353 0.12627004 0.051351 -0.01870417
000130 c9 7c 2d be bc de e7 3c 20 c9 49 bc 77 ee cb 3d
       -0.16942133 0.02830445 -0.012316018 0.09957593
000140 44 a8 97 bd 1d ca e7 3c 0d e8 0b be c4 08 0d bd
       -0.07405141 0.028294617 -0.13662739 -0.034432188
000150 ed 9d d4 3d f3 dd 0f 3e 77 10 aa 3c 51 13 dc bd
       0.103816845 0.1404951 0.020759804 -0.10745872
000160 c8 9e 64 3e 5e b4 ea bd b2 e6 de bd 38 5a 3c be
       0.22326195 -0.114601836 -0.108838454 -0.1839379
000170 e3 92 26 3d 91 79 20 3e 9c ec 3f 3e 4c 67 fa bd
       0.040667426 0.15671374 0.18742603 -0.122267336
000180 ec 38 30 3e 7b 1e a2 bd 23 fe 54 bd ea 2c 08 bd
       0.17209214 -0.0791597 -0.052000176 -0.03324596
000190 d4 fe 38 be 85 0f ec 3d 4e fe 1d 3e 31 ba e3 3d
       -0.18065959 0.115263976 0.15429041 0.111194976
0001a0 f4 a1 d5 bc e0 34 5d bd e9 b3 ba bd 71 61 5a bd
       -0.026078202 -0.054005504 -0.091163464 -0.053315584
0001b0 ad bc c3 3d d1 c5 9a bc c8 a7 88 be eb 5e e5 bc
       0.095574714 -0.018893154 -0.26690507 -0.027999362
0001c0 fb c3 30 bd be a9 bb 3c 30 b4 88 3d 5c 8f 69 3c
       -0.04315565 0.022908088 0.06674993 0.014255371
0001d0 83 f2 46 3b 59 bd 99 3d aa e1 2e be 8f ed 6f bd
       0.003035695 0.07506818 -0.17078272 -0.058576163
0001e0 c0 af 67 be 93 d0 9a 3d 55 75 b2 bd 7f ac aa 3d
       -0.22625637 0.075593136 -0.087137856 0.08333682
0001f0 7b 14 df 3b 81 a4 66 be 89 ca 41 be cb 9f 76 bd
       0.0068078614 -0.22523691 -0.18924917 -0.060210984
000200 c7 50 3a be 20 62 34 bc 09 96 4b 3c 6d d4 85 bb
       -0.18194877 -0.011009723 0.012425908 -0.004084161
000210 6d ff 16 bc 7c c1 a0 3d 2b 79 0a bd b1 3b 17 3c
       -0.009216172 0.07849404 -0.03380696 0.00923054
000220 8a eb b1 bd 9e cb 09 bd c8 29 7d bd 20 45 47 bb
       -0.08687504 -0.03364145 -0.061807424 -0.0030406192
000230 db 32 88 bd 50 19 95 3c ae 51 24 be 02 9b 4d bd
       -0.06650325 0.018200547 -0.16046783 -0.050196655
000240 f6 4f 2a bd c4 23 bc bd dd cc 99 be 41 a4 93 be
       -0.041580163 -0.09186509 -0.3003911 -0.28836253
000250 b4 5d 89 3d f8 a4 9e bd ac 4a 26 bb 1e 56 bb 3a
       0.067073256 -0.07746309 -0.0025374098 0.0014292633
000260 fe ac ad bd 0a b2 55 3d 66 cf e0 bd 9f 1a e8 3d
       -0.08480261 0.052171744 -0.10977058 0.113332026
000270 47 1e 3f 3d 96 9e 25 bc bb 69 e3 3a 12 5c b3 bc
       0.046659734 -0.010108611 0.0017350236 -0.021894488
000280 1f 07 00 bd bb 9f f0 bd 1f b3 d3 3c b2 83 1a bd
       -0.03125679 -0.11749216 0.025842248 -0.03772325
000290 97 3c ef 3d 47 87 d6 bd 23 7c 38 be 06 6a 17 3d
       0.116814785 -0.10475021 -0.18016104 0.036966346
0002a0 04 af b8 bd f9 b8 5d 3e 40 8e 45 3e 9a 84 ef 3c
       -0.090177566 0.21652593 0.19292545 0.029238034
0002b0 62 82 ab 3c 12 37 38 3d 70 6c 54 be 9d 52 5a bd
       0.020936195 0.044974394 -0.2074449 -0.053301442
0002c0 5b 45 87 be 18 4f 67 3e 3f 6e 9a bc e3 56 84 bc
       -0.26420102 0.22588766 -0.018851398 -0.016154712
0002d0 a5 c0 2d 3d fb 56 77 3d bf 23 0b bd 07 6f 36 be
       0.04242005 0.060385685 -0.033969637 -0.17815791
0002e0 91 6c 9d bd 5f 9c eb 3c cc 80 c0 3c f4 c1 17 3d
       -0.07686723 0.028761087 0.023498915 0.037050202
0002f0 27 0c 59 bd 88 e2 42 be 4d 2b fe bc f3 fa e1 3d
       -0.052990105 -0.19031727 -0.031026507 0.11034193
000300 ea 46 81 bd 1a 0c 0c 3e 58 8a 22 3d 9b dd 3e 3d
       -0.06312354 0.13676491 0.039682716 0.04659806
000310 6d 1d 83 3d 9b 4c c3 3d f7 17 4b be d0 34 1f 3e
       0.06402097 0.09536096 -0.1983336 0.1554749
000320 7c 88 22 3e a8 99 1b bd c5 4f b4 bb 14 28 ef 3d
       0.15872377 -0.037988335 -0.0055026733 0.11677566
000330 7f 38 f5 3b ef 5a 88 be 41 14 0f bd e2 56 89 bd
       0.0074835415 -0.26631877 -0.034931425 -0.06706025
000340 78 e3 f3 bc 99 68 8e bd 73 fd ff 3c 74 00 a4 bc
       -0.029771551 -0.06953544 0.031248784 -0.020019747
000350 69 c5 f3 bd 2e 84 cf 3c 0a 76 bc bd e3 aa b0 3c
       -0.119028874 0.025331583 -0.09202202 0.02156586
000360 5a 74 0b 3c ca ac 19 bd b2 75 cc bc 24 98 c3 bd
       0.008511627 -0.0375183 -0.024958465 -0.09550503
000370 53 f2 4b 3d 1d 63 d9 3b f5 a3 1d 3b 01 9d 59 bd
       0.049791645 0.0066341297 0.0024054025 -0.053128246
000380 30 d8 a8 bc 83 3b 15 bc ec 7d 97 bd d5 7d cd bd
       -0.020610899 -0.009108427 -0.073970646 -0.10033766
000390 6e 5b ba bd 80 a6 23 bd 96 e9 8b bd 01 f5 ca bd
       -0.0909947 -0.03995371 -0.06831662 -0.09910012
0003a0 6f 07 09 be 7e 96 d0 bc 93 1c 8d 3d 00 8a ba be
       -0.13381742 -0.025462385 0.06890216 -0.3643341
0003b0 30 1a 13 be ad 7e 2e bd ca 83 1f be 59 69 cf bd
       -0.14365458 -0.042601276 -0.15577617 -0.10127515
0003c0 b7 65 80 bd be ca bb bd 28 6a a2 3d 6d bb c7 bc
       -0.062694006 -0.091695294 0.07930404 -0.024381364
0003d0 7a 84 87 bd ea 42 b9 3d 49 f7 eb bd 0a ba 82 bc
       -0.06617065 0.09045966 -0.11521775 -0.015957851
0003e0 ee c3 73 3c 75 e3 da 3d 34 dc c1 bd 2b 2c a2 3c
       0.014878256 0.10687915 -0.094658285 0.019796452
0003f0 53 18 8b 3d e0 4e df 3d a0 40 d3 bd c0 97 bd 3d
       0.06791749 0.10903716 -0.103150606 0.0925746

actor.2.bias f4 [256]
000000 25 ba 03 3c 62 a1 32 bd 19 fb da bd 97 ed 78 bc
       0.008039986 -0.043610938 -0.10692424 -0.015193365
000010 23 ae 25 be b1 19 83 bd 8f b4 9d 3a 9e 3e 98 3c
       -0.16179709 -0.064013846 0.001203196 0.018584546
000020 76 a6 2c be 00 87 fe bc 69 06 94 bb 74 06 b6 bd
       -0.16860375 -0.031070232 -0.0045173657 -0.088879496
000030 a8 a6 58 bd 86 7d fc bd 27 4e e1 bd f0 86 06 bd
       -0.05289331 -0.12328629 -0.110012345 -0.03284353
000040 77 c5 c1 bd 16 a6 5c bd e3 bd e6 3a 9a d6 31 bd
       -0.094614916 -0.05386933 0.0017604198 -0.04341755
000050 2f e7 4b bc d8 15 a6 bd 1f f3 79 bd ff e9 1e be
       -0.012445255 -0.08109635 -0.061022874 -0.1551895
000060 26 a7 2c bd 8d ad 83 bd cb 3c be bd 20 83 ca bc
       -0.042151593 -0.064295866 -0.09288939 -0.024720728
000070 35 29 3d 3b 97 ac da bd 52 22 2b ba 3e 9c 48 be
       0.0028863673 -0.1067745 -0.00065282464 -0.19590852
000080 fb f9 c1 bd 39 c4 6b bd 83 16 be bd 56 57 9e bd
       -0.09471508 -0.05756018 -0.092816375 -0.07731502
000090 85 be 1f be e8 40 de bc 78 ff fc bd 8e d3 ba bd
       -0.15600021 -0.02713056 -0.12353414 -0.09122382
0000a0 12 11 48 3c 02 b5 c1 3c 80 1a be bd d1 70 cf bd
       0.012211101 0.023645882 -0.09282398 -0.1012894
0000b0 c3 10 b5 bd 31 73 fd bd 06 7e 53 bd 89 07 91 bd
       -0.08841088 -0.12375487 -0.051633857 -0.07081515
0000c0 48 a4 01 bd 09 70 85 bd 18 db 97 bd 3b 4f fb bd
       -0.03165081 -0.0651551 -0.07414836 -0.122709714
0000d0 b8 ff 78 bd 25 f9 cb bc c4 ce 51 bd af e4 7f bd
       -0.060790747 -0.024899075 -0.051222578 -0.06247395
0000e0 ff 32 3d 3c e5 3a 0a be 75 bb 10 be 90 2b c1 bd
       0.011547803 -0.13499029 -0.14134009 -0.09432137
0000f0 c9 82 ee bd 65 4b 11 bd fc 78 0c be 22 c3 db bc
       -0.11646039 -0.035472292 -0.13718027 -0.026826445
000100 7b ef 4c bd 44 32 28 bd 79 a3 79 bd d2 ef ac b9
       -0.050033074 -0.041063562 -0.060946915 -0.00032985077
000110 bb a2 1b be 72 01 9a bc 2b a6 1b bc 85 c6 ca bd
       -0.15198795 -0.018799517 -0.009500067 -0.09901146
000120 a4 4d e7 bc 3a da 90 bd 54 17 cc bd a2 2b ea bd
       -0.028235264 -0.070728734 -0.09965387 -0.114341035
000130 05 b6 5b bd 6d 3b c3 bc ac d6 f8 bc 2f 66 c3 bd
       -0.053640384 -0.023832047 -0.030375801 -0.09540974
000140 9c c3 13 be 56 89 3e bd 6e e8 8e bd da 55 e1 bc
       -0.14430088 -0.046517693 -0.06977926 -0.027506758
000150 1e 5f d0 bd c1 fe 1c be 5e b0 b2 bd ad c4 6d bd
       -0.10174392 -0.15331556 -0.087250456 -0.058048893
000160 18 a9 65 bd a9 ca b8 bd c8 84 38 bd e4 c9 02 bd
       -0.056069463 -0.09023029 -0.045048505 -0.03193082
000170 11 30 8e bd ac 9b 75 bd 0e cd e7 bc 0a bf bc bd
       -0.06942762 -0.059962913 -0.02829602 -0.09216125
000180 fb ee ee bd c6 46 c7 bd 2d af 14 bd 80 46 1f 3d
       -0.11666676 -0.09730296 -0.036299873 0.038885593
000190 5d 95 98 be ed 16 98 bd 35 f6 d8 bd d4 d1 85 bd
       -0.29801455 -0.07426248 -0.10593835 -0.06534162
0001a0 8c 79 96 bd e9 07 23 be ef 19 2e be d7 fd cf bd
       -0.07347402 -0.15920986 -0.1700208 -0.10155838
0001b0 64 92 80 bd 8c fa bf bd 65 4e 18 be ef 38 ea bd
       -0.06277922 -0.0937396 -0.14873655 -0.114366405
0001c0 8f ec 56 bd 37 07 bf bd bc 88 19 be a8 9c 38 bb
       -0.052471694 -0.09327548 -0.14993566 -0.0028169546
0001d0 4a 8e 91 bd 56 96 9f bd 2d d8 21 bd d3 46 a2 bd
       -0.071072176 -0.07792346 -0.039512802 -0.07923665
0001e0 a6 b4 22 be e1 cf 0d bd 55 cd 0c bd da 32 80 bd
       -0.15889224 -0.034622077 -0.034375507 -0.06259699
0001f0 bf 91 ca bd 1d 55 8d bc 4f 16 04 bd 08 a1 75 bc
       -0.0989108 -0.0172525 -0.032247838 -0.014992006
000200 bd b1 3f bd b8 11 1c 3b cc 03 e1 bc c5 f4 dd bd
       -0.046800364 0.0023814272 -0.02746763 -0.10837702
000210 6f e6 d8 bd 36 28 c0 bd 4c 07 c0 bd e3 f8 94 bd
       -0.10590827 -0.0938267 -0.09376392 -0.07274034
000220 e8 18 dc bd a5 b3 0b bd 8e 3e 7c bd d0 b4 94 3d
       -0.10746938 -0.03410687 -0.061583094 0.0726105
000230 ea 4a b0 bd 56 88 99 bd 7f 58 b4 bc 35 6f cd bd
       -0.08608039 -0.07496707 -0.022014854 -0.10030977
000240 24 4c 9d bc 75 07 03 bd 75 23 02 bd 7a e3 d5 bc
       -0.019201346 -0.031989533 -0.031772096 -0.026109446
000250 eb 9f 06 3c e3 a4 dd bc 0e e5 0e bd 43 99 e8 bc
       0.008216838 -0.027056163 -0.034886412 -0.028393393
000260 30 71 09 bd 24 a5 71 bc ca 88 b6 bd 92 09 80 bd
       -0.03355521 -0.014748845 -0.08912809 -0.062518254
000270 2f dd b2 bd 4c f1 bc 3c ba cc a3 bd be f9 30 bd
       -0.08733594 0.023064278 -0.07998033 -0.043206923
000280 f4 0b 64 bd a0 d9 02 bd da c0 c4 bd 20 dc 20 be
       -0.055675462 -0.031945825 -0.09607096 -0.15708971
000290 bd 11 77 bc a8 87 39 bd 48 15 0e be 07 b5 76 bd
       -0.015079913 -0.045295388 -0.13875306 -0.060231235
0002a0 c0 73 39 3d fe 5a 18 be 1e cf 20 bd 9d 2c 91 bc
       0.045276403 -0.14878461 -0.039260022 -0.017721469
0002b0 e6 9b 86 bd 4c 11 bc bd 8c b9 67 bd 8c 16 90 bd
       -0.06572704 -0.091829866 -0.056573436 -0.070355505
0002c0 f4 50 16 bd 46 06 0f bd 3d 8c b6 bd f9 17 04 be
       -0.036698297 -0.034918092 -0.08913467 -0.1289977
0002d0 53 54 dc bc d1 85 ae bd 62 ab 46 bd 1b a4 0e 3c
       -0.026895678 -0.08521617 -0.048503287 0.008706118
0002e0 79 0b 4d bd 24 11 08 bc c4 f0 e0 bd 87 4b 3b bd
       -0.05005977 -0.008304868 -0.109834224 -0.045726325
0002f0 09 1a 9f bd 77 68 b5 bd a9 ff 77 bd e8 27 4f bd
       -0.07768638 -0.08857816 -0.06054655 -0.050575167
000300 e3 46 7c bd 74 bf 47 bd 2a 46 bd bd 21 f8 74 bd
       -0.06159104 -0.04876657 -0.09241898 -0.059806947
000310 9e 7e 1b bd b5 79 da bd 67 9f 14 be ed 16 d5 bd
       -0.03796255 -0.10667745 -0.14513932 -0.10404763
000320 e9 da c2 bd 13 5b 3c bd e5 ec 37 bd b6 b5 e8 bd
       -0.0951441 -0.045985293 -0.044903655 -0.113627836
000330 ec 18 69 bc 0f 31 ee bd bb f5 22 bd 8c 52 bb bd
       -0.014227133 -0.11630451 -0.039785128 -0.09146604
000340 43 0e f2 bd a6 6c 87 bd 56 7d 2c bd d0 19 9f bd
       -0.118191265 -0.0661252 -0.042111717 -0.07768595
000350 77 64 c7 bd 1f 6d be bc 21 76 a3 bd 8e 5f 23 bd
       -0.09735959 -0.023245392 -0.07981516 -0.03988605
000360 a7 c4 85 bd 22 6e 96 bd f8 b2 c1 bd 0e 11 a1 bc
       -0.06531649 -0.07345225 -0.09457964 -0.019661453
000370 25 ed 5e bd d4 9a f8 bc e8 02 6f bd 30 12 6b bd
       -0.054425377 -0.030347265 -0.05835238 -0.05739039
000380 93 fd a4 bd d5 36 80 bd 1c 6d 19 be 7e 90 c7 bd
       -0.08056178 -0.062604584 -0.14983028 -0.097443566
000390 64 3e de 3b 6f 09 fc bc c0 25 5c bd ee d8 fe bd
       0.00678234 -0.030766217 -0.05374694 -0.1244372
0003a0 39 39 20 be 34 60 8e bd 50 53 89 bd cb 41 13 bd
       -0.15646829 -0.06951943 -0.06705344 -0.035951417
0003b0 66 26 9c bd fe e0 4e bd 1d de bb bd 98 89 92 bd
       -0.076245114 -0.050507538 -0.09173224 -0.0715515
0003c0 4b 2f d8 bc dd 09 bd bd 73 e7 0b be 6e 74 5c bd
       -0.026389739 -0.09230397 -0.1366251 -0.053821974
0003d0 74 e9 ca bd 0f 28 18 bc 14 2b c8 bd 54 49 04 be
       -0.09907809 -0.009286894 -0.097738415 -0.12918597
0003e0 ae e6 3f bc 22 0b 99 bd 4f 46 9f bd 75 82 ce bd
       -0.011712713 -0.074728265 -0.07777082 -0.100834765
0003f0 aa 8e cb bd 9a 56 a7 bb 4b 63 62 bd a0 f0 14 bd
       -0.099393204 -0.0051067593 -0.055270474 -0.03636229

actor.4.weight f4 [128, 256]
000000 c0 18 bb bd 93 c3 d6 bc 0d ad 47 bd e1 07 32 3d
       -0.0913558 -0.026216304 -0.04874902 0.043464545
000010 6b 65 51 3d 15 ca 11 3d fa e3 b4 bd f9 af 1e 3d
       0.05112211 0.03559311 -0.088325456 0.03874204
000020 7c 33 01 3e 1c d9 b9 bc 62 ec 71 bd fd 31 df bc
       0.12617296 -0.022686534 -0.059063323 -0.027245516
000030 86 9a da bc 9f fd ad 3a cc 33 85 bd 93 94 00 bc
       -0.02668501 0.0013274438 -0.0650402 -0.007847923
000040 51 a7 c0 3d 54 19 84 bd ee 85 ca bc a8 95 da bb
       0.09406913 -0.064501435 -0.024722066 -0.0066706724
000050 f4 19 69 bd 66 c3 18 3d 45 66 e4 3c f1 9d 04 3d
       -0.056909516 0.03729572 0.027880797 0.032377187
000060 c3 ed 89 bd d5 1c 5b bb 8a 19 5b 3d 05 bc d8 b9
       -0.067348026 -0.0033433933 0.053491153 -0.00041338816
000070 33 29 9a 3c c4 d8 4d bd 21 f7 be 39 26 62 e7 bd
       0.018818473 -0.050255552 0.0003642375 -0.11298017
000080 3a d9 e7 bc 4f da ed 3a 1a e7 01 bd 04 4a 12 3c
       -0.028301824 0.0018146726 -0.031714536 0.0089287795
000090 92 53 c4 3d db 00 d0 bd 71 02 f5 3b df 50 5f 3d
       0.09586252 -0.10156413 0.0074770977 0.054520484
0000a0 41 e5 53 bc d7 67 f7 bc 6e 4e a7 bb 54 c4 cc bd
       -0.012933076 -0.030200882 -0.005105785 -0.09998384
0000b0 7a 09 ab bd c2 07 ea bd 26 a1 5e be e0 95 10 3e
       -0.08351417 -0.11427261 -0.21741161 0.14119673
0000c0 23 05 44 3c 90 bc 4c bd cc 7a a6 bd ef 8d 0a bc
       0.011964115 -0.049984515 -0.081288904 -0.008456691
0000d0 b7 ed b6 bd 7f 2d 0e 3d d5 c7 de 3c 01 83 e3 3c
       -0.08932059 0.034711357 0.027194897 0.027772428
0000e0 23 29 e3 bc aa 8b 7e bd 12 35 9c bd 3c 7a 10 bd
       -0.027729576 -0.062144913 -0.0762731 -0.03527282
0000f0 7a 67 cb bc 32 2b 7d 3d 29 9a 57 bd 11 03 8e 3d
       -0.024829615 0.061808772 -0.052637253 0.069341786
000100 cd 7c 27 bd 42 02 af bb 3e 2a ec 3c 45 50 a6 bd
       -0.040890504 -0.0053408453 0.028828736 -0.08120779
000110 57 f4 a9 bc 32 84 0b bd 4c 5e e6 bc 19 83 52 bd
       -0.020746393 -0.03406162 -0.028121136 -0.051394556
000120 9d 03 59 bd e8 6e 78 bc 58 63 25 3d b8 99 9d 3b
       -0.05298196 -0.015163161 0.040377945 0.0048095845
000130 a0 6d da 3d 74 d9 a9 3d 42 af ad bc 5f ff d7 3d
       0.106654406 0.08293429 -0.021201733 0.10546755
000140 65 f8 1c 3d 7b e0 6a bb 87 c9 84 bd 27 c9 ed 3b
       0.038322825 -0.0035839367 -0.06483751 0.0072566452
000150 a1 23 84 3d 53 4f 8a bd 70 dc 34 3c 12 0a b0 bc
       0.06452108 -0.06753411 0.0110388845 -0.021489177
000160 66 22 e1 3c 01 c7 13 be 61 b7 d3 bc b0 dd 98 bd
       0.027482223 -0.14431383 -0.025844278 -0.074641585
000170 73 91 15 bd b6 5e 36 be 9a d3 2e bd ca ec cc 3d
       -0.036515664 -0.17809567 -0.042682268 0.100061014
000180 d0 93 96 bd cd ce 43 bc 5e d3 ea bc 1b de b2 bc
       -0.07352412 -0.011951161 -0.02866524 -0.021834424
000190 aa 3a 31 3d cd 7c 9b bb 34 6e c4 bd 34 24 99 bd
       0.043268837 -0.004745102 -0.09591332 -0.07477608
0001a0 b7 08 72 3b cc 23 bf bd 46 a9 9c 3d cf f7 85 3c
       0.0036931464 -0.093329996 0.07649474 0.016353516
0001b0 4d 0c 3d bd 06 ee 21 bd 54 78 92 3d 77 10 4d bd
       -0.04615431 -0.039533637 0.07151857 -0.05006453
0001c0 1b d4 dc bc 4c 91 2b bd ff 0d f8 bc a3 86 6c 3d
       -0.026956609 -0.041886613 -0.030280111 0.057745587
0001d0 f7 b5 b5 bd c8 bd 35 3c 87 c8 06 bd 1a 19 a8 3d
       -0.08872598 0.011092611 -0.03290608 0.08207913
0001e0 09 96 b1 3d 22 da c3 bc c1 64 f4 3c f1 5c 93 3d
       0.08671195 -0.023907725 0.0298332 0.071954615
0001f0 95 e7 9c 3d 14 6a 75 bc bc 1c ac bd a3 1e ab 3d
       0.07661358 -0.014978904 -0.08403918 0.08355453
000200 dd ca cd bd f1 ed d2 bc 32 a1 b2 3c 71 4c 8b 3c
       -0.10048459 -0.025748225 0.02180538 0.017004224
000210 22 76 a0 bc 03 d4 2e bc 13 ee 34 3b 2a 31 59 bd
       -0.01958758 -0.010670665 0.0027607724 -0.053025402
000220 a8 7a a3 3c 9c 4a d0 3a 23 9d 86 3d 50 49 09 be
       0.019955948 0.0015891376 0.0657294 -0.13406873
000230 13 ff fb 3c 1c 28 6d 3d 6a 1f 86 bd ac ee e8 3d
       0.030761277 0.05789958 -0.065489605 0.11373648
000240 a9 d5 be bd 2b 7d 4a 3d fb 87 44 3d 53 01 a5 bd
       -0.09318096 0.049435776 0.047981244 -0.08056893
000250 f3 db 29 be 32 65 d1 bc 19 27 61 3c 6c 49 00 3d
       -0.1658781 -0.025560949 0.013742232 0.03132002
000260 c5 9e 2d bd 76 4e c5 3c 7c 02 d2 3d a5 d6 fd 3c
       -0.042387743 0.024085265 0.1025438 0.03098614
000270 d9 53 61 3d 06 06 5d bb d0 00 bf bb 73 0c 0d be
       0.055011604 -0.0033725514 -0.0058289543 -0.1377428
000280 6f 9c 5d 3b dc 1e 89 3c 76 e3 b6 bd f4 1d 9c bc
       0.0033815166 0.016738348 -0.089301035 -0.019057252
000290 ef 83 97 3d b1 a1 d4 bc f1 06 f7 3c b3 5b 34 bd
       0.07398211 -0.025956007 0.030154677 -0.044032764
0002a0 69 bd 57 bd 43 e2 d7 bd 0f 67 a2 3d 1c eb 7f 3d
       -0.05267087 -0.10541203 0.07929813 0.062480077
0002b0 eb 79 e4 bc fc b1 a7 bc 3a bf 40 bd e0 d4 e1 3d
       -0.027890166 -0.020470612 -0.047057368 0.11026931
0002c0 c6 0f 0a be 84 e6 0d 3d 12 87 4d 3d 92 55 81 3d
       -0.1348258 0.034643665 0.05017764 0.06315149
0002d0 b6 4c 1b bc 3b c8 ba 3c 31 60 6c 3d e8 82 9d 3c
       -0.0094787385 0.022800555 0.057708923 0.01922746
0002e0 7a 8d 40 bd 99 43 1e be 22 ce 01 bd a2 d4 7a bc
       -0.047009923 -0.15455474 -0.031690724 -0.015309485
0002f0 79 7a a0 bd 4a f0 b7 3d 92 2d a8 bc 81 a5 19 be
       -0.0783586 0.089813784 -0.020529542 -0.15004541
000300 4c 83 ff 3c 78 10 4b 3b 4c 7f 98 3d ba 8b 20 3c
       0.031190537 0.0030985158 0.07446155 0.009798938
000310 30 b1 1c bd 80 ee 8b 3c 4b 35 b8 3c 06 91 df bc
       -0.038254917 0.0170815 0.02248635 -0.027290832
000320 5c 4f 70 bd 01 c4 55 bb c8 c1 91 bd e7 3d ca 3d
       -0.058669433 -0.0032618048 -0.07117039 0.09875088
000330 5d cf 1f be d4 47 d7 3c 43 b5 24 bd 3d 1d b0 3d
       -0.15606447 0.026279368 -0.040211927 0.08599327
000340 e5 f2 0c bd 87 37 18 be fc 20 9f bd e0 de 7a 3b
       -0.03441133 -0.14864932 -0.07769963 0.0038279817
000350 61 4b f0 3d eb c1 3b 3d ae 4f e4 bc 4e 74 77 3d
       0.117331274 0.04583923 -0.027870025 0.06041365
000360 d4 d4 a7 bc 64 d2 9b 3d 94 ad 9d 3c 5c e3 2e 3d
       -0.020487227 0.07608488 0.019247808 0.042697296
000370 37 d8 10 bd 16 78 e8 bd b1 cc f3 3d 4d 33 8b 3d
       -0.03536245 -0.113510296 0.11904276 0.06796894
000380 85 b5 da bd 5e 6e af bd ff 52 fc bd 66 7c bd bb
       -0.10679153 -0.08565973 -0.12320518 -0.0057826517
000390 3d a3 dc bd 6d d4 46 bd 19 18 da 3d 4f a6 16 3d
       -0.10773323 -0.04854243 0.106491275 0.036779698
0003a0 06 66 52 3d b2 1a 26 bd f0 37 8b 3d 4b 3c be bd
       0.05136683 -0.040552802 0.067977786 -0.09288844
0003b0 ab ed e5 bd 3c 42 4f 3d 3c 8c 00 3c 50 51 cb bd
       -0.11226972 0.050600275 0.0078459345 -0.099276185
0003c0 d2 04 97 3d a6 d1 92 3d 66 66 9e 3b 13 b5 42 bd
       0.07373966 0.071688935 0.004833984 -0.047535967
0003d0 fb 7a fd bc 37 35 63 bd 20 de 95 bd 30 f7 49 bd
       -0.03094243 -0.05547067 -0.073177576 -0.049308002
0003e0 ed c7 22 3c 91 f0 63 3d ef e1 58 bc 5f 0a 72 bc
       0.009935361 0.055649344 -0.0132374605 -0.0147729805
0003f0 99 0f fb 3d 4c dc 2f 3d c6 2b 6a ba 66 e8 1c bc
       0.122588344 0.0429347 -0.00089329144 -0.0095768925

actor.4.bias f4 [128]
000000 85 d3 1f bc 99 08 c0 bb 94 b4 a3 bd a3 71 06 3d
       -0.00975502 -0.0058604 -0.07993427 0.032823216
000010 3e 5d c1 bd 4a 68 6c bb c0 96 e9 bc 78 da 30 bd
       -0.09441613 -0.0036072903 -0.028514266 -0.043177098
000020 b3 dc cd bd 8e 16 fa bc 02 c8 14 bd 82 51 70 bd
       -0.10051861 -0.030528333 -0.036323555 -0.058671482
000030 bc 15 81 bc d1 9f 4d bb 12 fd 1c 3c b9 17 41 bc
       -0.015757434 -0.0031375776 0.009581821 -0.011785441
000040 11 d0 c9 bc 9c eb e7 bd 08 0f 33 bd bc 2e 48 bd
       -0.024635347 -0.11324236 -0.043715507 -0.048872694
000050 ee b5 14 bd d4 f2 c4 bc 26 c4 2f bd dc aa 61 bd
       -0.036306314 -0.02404157 -0.04291167 -0.055094585
000060 cc 7f a7 bb b7 be 9c bd 16 74 81 bb a3 2c 93 bd
       -0.00511167 -0.076535635 -0.003950606 -0.07186248
000070 7f 0c b3 bd 6c 34 3e bd a7 aa 85 bd 2f 44 8b bd
       -0.08742618 -0.046436712 -0.0652669 -0.06800114
000080 5d d0 bb bb 63 e4 c0 bd 16 d8 45 be 82 40 4d bd
       -0.005731626 -0.09418561 -0.19320711 -0.050110348
000090 bd be 18 bc c4 eb 83 bb 8c 34 da bc a7 3b 0f bd
       -0.009322819 -0.004025908 -0.026636384 -0.034969
0000a0 a0 37 09 bd 16 4e b5 bc 3f 42 a1 bd b5 95 bb bd
       -0.033500314 -0.02213196 -0.078739636 -0.09159414
0000b0 f2 62 9e 3d f6 74 f0 3c c4 59 48 3c 0f 00 bc bd
       0.07733716 0.029352646 0.012228433 -0.09179699
0000c0 b0 a6 48 bd 41 be a9 bc d9 c0 d5 bd 4d 08 98 3c
       -0.04898709 -0.020720603 -0.104371734 0.018558646
0000d0 51 0f 12 bd 60 b6 23 be 3f 6d 10 bc 36 94 c9 bd
       -0.035659138 -0.1598754 -0.008815109 -0.09842722
0000e0 09 3c 87 ba 94 1b db bc 2a 9b 0e be 90 87 81 bd
       -0.0010317574 -0.026746549 -0.13926378 -0.063246846
0000f0 f9 46 51 bd 6b a0 2b bb df ba a5 bd 18 90 f3 ba
       -0.051093075 -0.0026188146 -0.080922835 -0.0018582372
000100 c7 ed 98 bd c4 96 ed bd ee 6f ee 3c 97 01 85 bc
       -0.074672274 -0.11601022 0.029106107 -0.01623611
000110 e0 a5 bf bd cd 24 6a bd f5 cd 8f bd 43 8b c0 bc
       -0.0935781 -0.057164002 -0.07021705 -0.023503905
000120 db 96 14 bc 70 dd 81 bc 88 a7 86 bd a3 bf 46 3c
       -0.00906917 -0.01585266 -0.06574923 0.012130651
000130 7b 1f d6 bd de ba a3 bd 63 53 71 be df 2f dc bb
       -0.10455223 -0.079946265 -0.23566966 -0.006719574
000140 ab e2 05 3d 9e 69 67 3a cb 09 21 bc 91 e8 40 bd
       0.03268687 0.0008827689 -0.009828995 -0.047096793
000150 13 80 61 bd ad 06 ed bd 45 ed 9d 3c 0f df 20 3d
       -0.05505378 -0.11573539 0.019278178 0.039275225
000160 fb b4 84 bc 01 09 1f bd a7 15 95 3a 98 ab 87 bc
       -0.01619958 -0.038826946 0.0011374251 -0.016561314
000170 bf 50 0f be e0 85 45 bd 9e aa 78 bd 24 7c 92 3c
       -0.13995646 -0.048223376 -0.06070959 0.01788146
000180 6c 08 1d bd 86 72 ae bb ff 4e a7 bc 81 fd 83 bd
       -0.03833811 -0.005323711 -0.02042341 -0.064448364
000190 c2 2e 91 bd d7 f1 50 bd 8d 32 6a bd d1 10 95 bd
       -0.070889965 -0.051011886 -0.057177115 -0.07278598
0001a0 9f 5d 25 bd f9 8b e5 3c a5 26 20 bd 8b c0 48 bd
       -0.040372487 0.028020846 -0.039099354 -0.04901175
0001b0 c1 8b 2d bd 1b a3 0c bd 17 88 05 bd 84 16 15 bc
       -0.042369608 -0.034335237 -0.03260049 -0.009099606
0001c0 d8 84 e2 bd 45 2b cd bd c4 cd 35 bd f5 33 7f bd
       -0.11060494 -0.10018019 -0.044385687 -0.06230541
0001d0 63 01 b7 bd ba 54 0c bd 80 50 09 bd 30 c4 58 bd
       -0.08935811 -0.03426049 -0.033524036 -0.052921474
0001e0 9b 09 2a bd ac 82 af 3c 82 6d a4 bc b1 3a 35 bd
       -0.041513067 0.021424614 -0.020071749 -0.044245426
0001f0 d6 8c 87 bd 1a 10 f8 bc 85 a0 ee bc 9e 1c f6 3c
       -0.06618659 -0.030281115 -0.029129276 0.030042943

actor.6.weight f4 [12, 128]
000000 6a a8 7d 3d eb df ac bc 21 8b d8 3c f0 92 85 3c
       0.06192819 -0.021102866 0.02643353 0.016305417
000010 88 2b 9c bc 1a 0e 4d bd 10 11 10 3a 4d f2 dd bc
       -0.019063726 -0.050062276 0.00054957066 -0.027093077
000020 ba 0c 11 bd 4c 93 1d 3d c3 fd 5d 3c 9a b3 a9 bc
       -0.035412528 0.03847055 0.013549271 -0.020715524
000030 a8 95 00 bd 5b 7c ad bc ba 1c 95 3c cf 0a 83 3c
       -0.031392723 -0.021177461 0.018202174 0.015996365
000040 5d e0 58 bd 33 b7 37 3c 70 f3 33 3d c5 ed f1 bc
       -0.052948344 0.011213112 0.043933332 -0.029532323
000050 32 22 53 bc 05 16 1b bd e4 4a 15 3d a8 b7 84 bc
       -0.012886571 -0.037862796 0.036448374 -0.016200855
000060 b2 cd e3 3b ad da 9c 3b 24 52 9e bb dc 35 b3 bd
       0.006952011 0.0047868104 -0.0048315693 -0.08750507
000070 e3 b9 79 3d f8 76 6c bc 61 01 81 3c 70 c8 ac bd
       0.06096829 -0.014432661 0.015747728 -0.08436668
000080 5a 3e a8 bc 4e 82 61 bd 47 c8 69 bd d9 8e 2a 3d
       -0.020537544 -0.05505591 -0.057075765 0.041640136
000090 4e 4e 11 3d 30 f5 42 3c b7 34 74 3d 12 43 53 3d
       0.035475068 0.011899278 0.059620585 0.051577635
0000a0 bd 4b 32 bd f4 13 a2 3d 7d 46 8e 3c fe 7e 2d bc
       -0.04352926 0.07913962 0.017367596 -0.010589359
0000b0 c3 eb ab bc 26 fd 61 3d fe 03 ff bb 2a 0f b4 bd
       -0.020986443 0.05517306 -0.0077824583 -0.08791955
0000c0 d2 18 10 bb 2a 2f 7e 3c 5b 42 85 3b b1 5d e9 3c
       -0.002198745 0.0155141745 0.004066748 0.028487058
0000d0 9f 0e 11 3c e0 3a 18 bd db 33 99 3c 9a ed 6a bd
       0.008853584 -0.037165523 0.018701484 -0.0573555
0000e0 7c 07 92 bc 14 d8 63 3a 0e eb 09 bd 9c be db 3a
       -0.017825834 0.0008691561 -0.03367143 0.001676518
0000f0 60 0f 85 bd 60 73 38 3d 03 06 e7 bc 15 61 9d 3d
       -0.06497073 0.045031905 -0.028201109 0.076845326
000100 c3 0e b4 bb a1 49 7e 3d b3 c5 89 3d 00 aa a4 bc
       -0.005494924 0.062081937 0.06727161 -0.020100594
000110 69 22 ac 3c a5 ec c3 3c 57 99 09 bd e9 22 bd 3c
       0.021012502 0.023916552 -0.033593502 0.023087936
000120 5c 3a 01 3d 67 04 2f 3d b6 e6 02 3d 5c 9a 1a 3d
       0.031549796 0.042728808 0.031958304 0.037744865
000130 7a 10 af bc 6f 27 b4 3c 10 98 a9 bc 5c 47 29 3d
       -0.021370161 0.02199146 -0.020702392 0.04132782
000140 34 3e d4 3d 91 65 26 bc 7b d4 2a 3d 2c fb 33 3d
       0.10363427 -0.010156051 0.041706543 0.043940708
000150 f3 8c 2e bd f3 17 6a bd b8 26 9d bc 7f e5 8a 3c
       -0.04261489 -0.057151746 -0.019183502 0.016955135
000160 ac 3e d3 bc c1 f9 68 bb 9c 5c 68 3c c7 87 66 bc
       -0.02578672 -0.0035549256 0.014182236 -0.014070458
000170 b3 04 91 bd c6 a0 47 ba 2c e7 54 bd c0 75 1d 3b
       -0.070809744 -0.00076152047 -0.051978275 0.0024026483
000180 25 8f 80 bb d4 ae 99 3d 42 9c a3 bc fc 3e 68 3d
       -0.003923314 0.07504049 -0.01997197 0.05670069
000190 22 aa ac 3c 4c 03 08 bd 45 01 98 3d 8c 4f ce 3c
       0.02107722 -0.03320627 0.07422117 0.025184415
0001a0 9a fe 51 bc 47 e7 f5 3d 76 ea 09 3c 8d c5 6e ba
       -0.012817049 0.12007003 0.008417716 -0.0009108417
0001b0 d7 1d 3e 3d d6 47 6a 3c c1 42 05 be 02 45 68 bc
       0.046415176 0.014299354 -0.13013746 -0.014176609
0001c0 84 66 9a bd 56 65 cb bc a2 83 80 3c c0 5a 47 3c
       -0.075390846 -0.024828594 0.015687767 0.012167633
0001d0 43 4b 58 3d 07 92 53 bb a5 71 06 bd c8 ce 54 3d
       0.05280615 -0.0032283084 -0.032823224 0.051955014
0001e0 fc 92 85 bd 3a 9c eb 3c 00 12 b4 bd 04 02 0d 3e
       -0.06522176 0.028761018 -0.08792496 0.137703
0001f0 3b d9 97 bc 9a a2 78 bd 86 79 0b 3d 15 97 ed 3c
       -0.0185362 -0.060701944 0.03405144 0.029002706
000200 01 34 c3 bc 9d 92 27 3c b7 43 83 3d b9 90 90 bd
       -0.023828508 0.010227826 0.064094 -0.07058854
000210 f7 37 f5 3d 5e 8b ed bc 33 9c 78 bb c7 ca 82 3d
       0.11973565 -0.02899712 -0.00379349 0.06386333
000220 46 7c 3f bc c2 e0 18 3d 64 54 15 bd f6 09 51 bd
       -0.011687344 0.03732372 -0.036457434 -0.05103489
000230 a7 0c 4b 3d 0a e9 60 3d 08 60 4b bd 61 84 af 3d
       0.049572613 0.054909743 -0.04965213 0.08570171
000240 0d a8 f0 bc ee c7 82 bc 6e 57 f7 bc 00 71 c1 bd
       -0.029377008 -0.015964475 -0.030193057 -0.09445381
000250 aa 65 8c bd b6 e9 f1 3b 7d 02 1b 3d 55 93 95 bc
       -0.068553284 0.007382597 0.03784417 -0.01825873
000260 5e a5 cb bd 37 25 f5 3c 72 ac ee 3b 6a 35 3b 3c
       -0.09943651 0.029924972 0.0072837407 0.011426309
000270 4f 7c 22 3d b5 89 c9 3c 7d b8 36 3d 01 e6 d2 bd
       0.03966933 0.024601797 0.044609535 -0.10297776
000280 27 15 f5 bc 4f f2 ed 3d e9 b7 71 3e c2 4a 0a bc
       -0.029917313 0.11618482 0.23605312 -0.008440675
000290 32 3d d1 3d 41 bc 86 bd 9b c2 22 3d 04 5a 91 bb
       0.1021675 -0.06578875 0.03973637 -0.0044357795
0002a0 c5 81 09 3c ad 1f 71 bd 34 c0 1d 3d c1 93 68 3d
       0.008392756 -0.0588681 0.038513377 0.056781534
0002b0 fa 57 69 bd 83 1a b4 bb 99 d0 44 3c 00 7f 68 3c
       -0.056968667 -0.0054963245 0.012012624 0.014190435
0002c0 c0 d3 02 bd 8e ba 11 3d f4 dd 6a bb aa de cb bc
       -0.03194022 0.035578303 -0.003583786 -0.024886448
0002d0 47 26 b8 3c 35 74 1a bd 86 fd 88 bd 9a 0c c1 bc
       0.02247919 -0.03770848 -0.06688981 -0.02356558
0002e0 33 cc 58 bc d2 b2 6e bd 9a d0 99 3d 0e fe e8 bc
       -0.013232279 -0.058276005 0.07510491 -0.028441455
0002f0 0b 3e c8 3c 89 44 b5 3d b4 5b a1 bd f3 71 08 3d
       0.024443647 0.08850963 -0.07878819 0.033311795
000300 05 65 0b 3d 49 2a 87 bc b0 34 3e 3d 11 00 0f bd
       0.034031887 -0.016499655 0.046436965 -0.034912173
000310 50 93 29 3d 99 b6 9d bb e8 25 bb bd ac ed 5b bd
       0.041400254 -0.004813027 -0.091380894 -0.05369346
000320 c8 fa 8c bd eb 09 ba 3b 44 c9 8b 3a 4f 4b d8 bc
       -0.0688377 0.005677452 0.001066484 -0.026403097
000330 3f 1b b2 3c c7 0c 01 3d f9 5d 00 bd b3 10 85 bc
       0.021741508 0.031506326 -0.03133962 -0.016243314
000340 f2 b4 e7 bd fd 21 2b bc 43 c4 5a 3d f2 0c b5 3d
       -0.113138095 -0.010445115 0.053409826 0.0884036
000350 9e f0 29 bc 71 f6 f9 3c c5 bb 0c bd b6 7c 9e bd
       -0.010372309 0.03051302 -0.03435876 -0.077386305
000360 4d 57 87 3d b2 61 27 bd aa 2a 64 3d 08 88 f3 ba
       0.06608448 -0.040864654 0.05570475 -0.0018579969
000370 fa 45 b9 bd 71 31 b7 bb ab 12 32 3c 48 25 c4 bd
       -0.0904655 -0.0055906107 0.010868709 -0.09577423
000380 3c f8 47 bd d3 a9 15 3d 37 f6 12 be 88 1f 63 bc
       -0.04882072 0.03653891 -0.14351736 -0.013862498
000390 ad e5 99 3b e5 e7 af 3c d5 e4 6a bd b1 b9 02 b9
       0.004696569 0.02147288 -0.057347137 -0.00012466942
0003a0 90 5c 13 bd a1 9b 8d 3d 30 8b 34 bd 28 0c 21 bc
       -0.035976946 0.069144495 -0.044078052 -0.009829558
0003b0 93 4c e6 bc 5a 1f 74 bd a9 5b ad 3d 8e be 53 bd
       -0.028112685 -0.05960021 0.084647484 -0.0516954
0003c0 01 1e 22 bd e7 67 92 bc 83 d1 07 3d 06 6e 6c bb
       -0.039579395 -0.01787181 0.03315879 -0.0036076321
0003d0 f5 ae b4 bc 66 ea 34 3b 36 5d e3 3b b9 7d a7 bb
       -0.022056082 0.0027605533 0.006938602 -0.005111423
0003e0 dc 78 ef 3d 8c 50 33 3c b2 12 3d 3c f6 fb 05 bd
       0.11692974 0.010944497 0.011540102 -0.03271099
0003f0 d8 ff 31 3c c9 48 ab bc 77 75 29 3d f3 9a 3b bd
       0.010864221 -0.02090873 0.04137179 -0.045802068

actor.6.bias f4 [12]
000000 4a c1 33 3c 0c 89 04 3e a5 be fd bd c0 a3 ee bd
       0.010971377 0.12942904 -0.12389878 -0.116523266
000010 8d f6 af 3d 88 e3 cc bd 7a d4 14 bd 9a 90 1d 3b
       0.08591948 -0.10004336 -0.036335446 0.0024042488
000020 44 c7 9c bd d0 bf 4e 3b 4b 58 03 bd 94 ea bf bd
       -0.076551944 0.0031547435 -0.032066625 -0.09370914
